node {
  name: "DecodeJpeg/contents"
  op: "Const"
  attr {
    key: "_output_shapes"
    value {
      list {
        shape {
        }
      }
    }
  }
  attr {
    key: "dtype"
    value {
      type: DT_STRING
    }
  }
  attr {
    key: "value"
    value {
      tensor {
        dtype: DT_STRING
        tensor_shape {
        }
      }
    }
  }
}
node {
  name: "DecodeJpeg"
  op: "DecodeJpeg"
  input: "DecodeJpeg/contents"
  attr {
    key: "_output_shapes"
    value {
      list {
        shape {
          dim {
            size: -1
          }
          dim {
            size: -1
          }
          dim {
            size: 3
          }
        }
      }
    }
  }
  attr {
    key: "acceptable_fraction"
    value {
      f: 1.0
    }
  }
  attr {
    key: "channels"
    value {
      i: 3
    }
  }
  attr {
    key: "dct_method"
    value {
      s: ""
    }
  }
  attr {
    key: "fancy_upscaling"
    value {
      b: true
    }
  }
  attr {
    key: "ratio"
    value {
      i: 1
    }
  }
  attr {
    key: "try_recover_truncated"
    value {
      b: false
    }
  }
}
node {
  name: "Cast"
  op: "Cast"
  input: "DecodeJpeg"
  attr {
    key: "DstT"
    value {
      type: DT_FLOAT
    }
  }
  attr {
    key: "SrcT"
    value {
      type: DT_UINT8
    }
  }
  attr {
    key: "_output_shapes"
    value {
      list {
        shape {
          dim {
            size: -1
          }
          dim {
            size: -1
          }
          dim {
            size: 3
          }
        }
      }
    }
  }
}
node {
  name: "ExpandDims/dim"
  op: "Const"
  attr {
    key: "_output_shapes"
    value {
      list {
        shape {
          dim {
            size: 1
          }
        }
      }
    }
  }
  attr {
    key: "dtype"
    value {
      type: DT_INT32
    }
  }
  attr {
    key: "value"
    value {
      tensor {
        dtype: DT_INT32
        tensor_shape {
          dim {
            size: 1
          }
        }
        int_val: 0
      }
    }
  }
}
node {
  name: "ExpandDims"
  op: "ExpandDims"
  input: "Cast"
  input: "ExpandDims/dim"
  attr {
    key: "T"
    value {
      type: DT_FLOAT
    }
  }
  attr {
    key: "Tdim"
    value {
      type: DT_INT32
    }
  }
  attr {
    key: "_output_shapes"
    value {
      list {
        shape {
          dim {
            size: 1
          }
          dim {
            size: -1
          }
          dim {
            size: -1
          }
          dim {
            size: 3
          }
        }
      }
    }
  }
}
node {
  name: "ResizeBilinear/size"
  op: "Const"
  attr {
    key: "_output_shapes"
    value {
      list {
        shape {
          dim {
            size: 2
          }
        }
      }
    }
  }
  attr {
    key: "dtype"
    value {
      type: DT_INT32
    }
  }
  attr {
    key: "value"
    value {
      tensor {
        dtype: DT_INT32
        tensor_shape {
          dim {
            size: 2
          }
        }
      }
    }
  }
}
node {
  name: "ResizeBilinear"
  op: "ResizeBilinear"
  input: "ExpandDims"
  input: "ResizeBilinear/size"
  attr {
    key: "T"
    value {
      type: DT_FLOAT
    }
  }
  attr {
    key: "_output_shapes"
    value {
      list {
        shape {
          dim {
            size: 1
          }
          dim {
            size: 299
          }
          dim {
            size: 299
          }
          dim {
            size: 3
          }
        }
      }
    }
  }
  attr {
    key: "align_corners"
    value {
      b: false
    }
  }
}
node {
  name: "Sub/y"
  op: "Const"
  attr {
    key: "_output_shapes"
    value {
      list {
        shape {
        }
      }
    }
  }
  attr {
    key: "dtype"
    value {
      type: DT_FLOAT
    }
  }
  attr {
    key: "value"
    value {
      tensor {
        dtype: DT_FLOAT
        tensor_shape {
        }
        float_val: 128.0
      }
    }
  }
}
node {
  name: "Sub"
  op: "Sub"
  input: "ResizeBilinear"
  input: "Sub/y"
  attr {
    key: "T"
    value {
      type: DT_FLOAT
    }
  }
  attr {
    key: "_output_shapes"
    value {
      list {
        shape {
          dim {
            size: 1
          }
          dim {
            size: 299
          }
          dim {
            size: 299
          }
          dim {
            size: 3
          }
        }
      }
    }
  }
}
node {
  name: "Mul/y"
  op: "Const"
  attr {
    key: "_output_shapes"
    value {
      list {
        shape {
        }
      }
    }
  }
  attr {
    key: "dtype"
    value {
      type: DT_FLOAT
    }
  }
  attr {
    key: "value"
    value {
      tensor {
        dtype: DT_FLOAT
        tensor_shape {
        }
        float_val: 0.0078125
      }
    }
  }
}
node {
  name: "Mul"
  op: "Mul"
  input: "Sub"
  input: "Mul/y"
  attr {
    key: "T"
    value {
      type: DT_FLOAT
    }
  }
  attr {
    key: "_output_shapes"
    value {
      list {
        shape {
          dim {
            size: 1
          }
          dim {
            size: 299
          }
          dim {
            size: 299
          }
          dim {
            size: 3
          }
        }
      }
    }
  }
}
node {
  name: "conv/conv2d_params"
  op: "Const"
  attr {
    key: "_output_shapes"
    value {
      list {
        shape {
          dim {
            size: 3
          }
          dim {
            size: 3
          }
          dim {
            size: 3
          }
          dim {
            size: 32
          }
        }
      }
    }
  }
  attr {
    key: "dtype"
    value {
      type: DT_FLOAT
    }
  }
  attr {
    key: "value"
    value {
      tensor {
        dtype: DT_FLOAT
        tensor_shape {
          dim {
            size: 3
          }
          dim {
            size: 3
          }
          dim {
            size: 3
          }
          dim {
            size: 32
          }
        }
      }
    }
  }
}
node {
  name: "conv/Conv2D"
  op: "Conv2D"
  input: "Mul"
  input: "conv/conv2d_params"
  attr {
    key: "T"
    value {
      type: DT_FLOAT
    }
  }
  attr {
    key: "_output_shapes"
    value {
      list {
        shape {
          dim {
            size: 1
          }
          dim {
            size: 149
          }
          dim {
            size: 149
          }
          dim {
            size: 32
          }
        }
      }
    }
  }
  attr {
    key: "data_format"
    value {
      s: "NHWC"
    }
  }
  attr {
    key: "dilations"
    value {
      list {
        i: 1
        i: 1
        i: 1
        i: 1
      }
    }
  }
  attr {
    key: "padding"
    value {
      s: "VALID"
    }
  }
  attr {
    key: "strides"
    value {
      list {
        i: 1
        i: 2
        i: 2
        i: 1
      }
    }
  }
  attr {
    key: "use_cudnn_on_gpu"
    value {
      b: true
    }
  }
}
node {
  name: "conv/batchnorm/beta"
  op: "Const"
  attr {
    key: "_output_shapes"
    value {
      list {
        shape {
          dim {
            size: 32
          }
        }
      }
    }
  }
  attr {
    key: "dtype"
    value {
      type: DT_FLOAT
    }
  }
  attr {
    key: "value"
    value {
      tensor {
        dtype: DT_FLOAT
        tensor_shape {
          dim {
            size: 32
          }
        }
      }
    }
  }
}
node {
  name: "conv/batchnorm/gamma"
  op: "Const"
  attr {
    key: "_output_shapes"
    value {
      list {
        shape {
          dim {
            size: 32
          }
        }
      }
    }
  }
  attr {
    key: "dtype"
    value {
      type: DT_FLOAT
    }
  }
  attr {
    key: "value"
    value {
      tensor {
        dtype: DT_FLOAT
        tensor_shape {
          dim {
            size: 32
          }
        }
      }
    }
  }
}
node {
  name: "conv/batchnorm/moving_mean"
  op: "Const"
  attr {
    key: "_output_shapes"
    value {
      list {
        shape {
          dim {
            size: 32
          }
        }
      }
    }
  }
  attr {
    key: "dtype"
    value {
      type: DT_FLOAT
    }
  }
  attr {
    key: "value"
    value {
      tensor {
        dtype: DT_FLOAT
        tensor_shape {
          dim {
            size: 32
          }
        }
      }
    }
  }
}
node {
  name: "conv/batchnorm/moving_variance"
  op: "Const"
  attr {
    key: "_output_shapes"
    value {
      list {
        shape {
          dim {
            size: 32
          }
        }
      }
    }
  }
  attr {
    key: "dtype"
    value {
      type: DT_FLOAT
    }
  }
  attr {
    key: "value"
    value {
      tensor {
        dtype: DT_FLOAT
        tensor_shape {
          dim {
            size: 32
          }
        }
      }
    }
  }
}
node {
  name: "conv/batchnorm"
  op: "BatchNormWithGlobalNormalization"
  input: "conv/Conv2D"
  input: "conv/batchnorm/moving_mean"
  input: "conv/batchnorm/moving_variance"
  input: "conv/batchnorm/beta"
  input: "conv/batchnorm/gamma"
  attr {
    key: "T"
    value {
      type: DT_FLOAT
    }
  }
  attr {
    key: "_output_shapes"
    value {
      list {
        shape {
          dim {
            size: 1
          }
          dim {
            size: 149
          }
          dim {
            size: 149
          }
          dim {
            size: 32
          }
        }
      }
    }
  }
  attr {
    key: "scale_after_normalization"
    value {
      b: false
    }
  }
  attr {
    key: "variance_epsilon"
    value {
      f: 0.0010000000475
    }
  }
}
node {
  name: "conv/CheckNumerics"
  op: "CheckNumerics"
  input: "conv/batchnorm"
  attr {
    key: "T"
    value {
      type: DT_FLOAT
    }
  }
  attr {
    key: "_output_shapes"
    value {
      list {
        shape {
          dim {
            size: 1
          }
          dim {
            size: 149
          }
          dim {
            size: 149
          }
          dim {
            size: 32
          }
        }
      }
    }
  }
  attr {
    key: "message"
    value {
      s: "activation input is not finite."
    }
  }
}
node {
  name: "conv/control_dependency"
  op: "Identity"
  input: "conv/batchnorm"
  input: "^conv/CheckNumerics"
  attr {
    key: "T"
    value {
      type: DT_FLOAT
    }
  }
  attr {
    key: "_output_shapes"
    value {
      list {
        shape {
          dim {
            size: 1
          }
          dim {
            size: 149
          }
          dim {
            size: 149
          }
          dim {
            size: 32
          }
        }
      }
    }
  }
}
node {
  name: "conv"
  op: "Relu"
  input: "conv/control_dependency"
  attr {
    key: "T"
    value {
      type: DT_FLOAT
    }
  }
  attr {
    key: "_output_shapes"
    value {
      list {
        shape {
          dim {
            size: 1
          }
          dim {
            size: 149
          }
          dim {
            size: 149
          }
          dim {
            size: 32
          }
        }
      }
    }
  }
}
node {
  name: "conv_1/conv2d_params"
  op: "Const"
  attr {
    key: "_output_shapes"
    value {
      list {
        shape {
          dim {
            size: 3
          }
          dim {
            size: 3
          }
          dim {
            size: 32
          }
          dim {
            size: 32
          }
        }
      }
    }
  }
  attr {
    key: "dtype"
    value {
      type: DT_FLOAT
    }
  }
  attr {
    key: "value"
    value {
      tensor {
        dtype: DT_FLOAT
        tensor_shape {
          dim {
            size: 3
          }
          dim {
            size: 3
          }
          dim {
            size: 32
          }
          dim {
            size: 32
          }
        }
      }
    }
  }
}
node {
  name: "conv_1/Conv2D"
  op: "Conv2D"
  input: "conv"
  input: "conv_1/conv2d_params"
  attr {
    key: "T"
    value {
      type: DT_FLOAT
    }
  }
  attr {
    key: "_output_shapes"
    value {
      list {
        shape {
          dim {
            size: 1
          }
          dim {
            size: 147
          }
          dim {
            size: 147
          }
          dim {
            size: 32
          }
        }
      }
    }
  }
  attr {
    key: "data_format"
    value {
      s: "NHWC"
    }
  }
  attr {
    key: "dilations"
    value {
      list {
        i: 1
        i: 1
        i: 1
        i: 1
      }
    }
  }
  attr {
    key: "padding"
    value {
      s: "VALID"
    }
  }
  attr {
    key: "strides"
    value {
      list {
        i: 1
        i: 1
        i: 1
        i: 1
      }
    }
  }
  attr {
    key: "use_cudnn_on_gpu"
    value {
      b: true
    }
  }
}
node {
  name: "conv_1/batchnorm/beta"
  op: "Const"
  attr {
    key: "_output_shapes"
    value {
      list {
        shape {
          dim {
            size: 32
          }
        }
      }
    }
  }
  attr {
    key: "dtype"
    value {
      type: DT_FLOAT
    }
  }
  attr {
    key: "value"
    value {
      tensor {
        dtype: DT_FLOAT
        tensor_shape {
          dim {
            size: 32
          }
        }
      }
    }
  }
}
node {
  name: "conv_1/batchnorm/gamma"
  op: "Const"
  attr {
    key: "_output_shapes"
    value {
      list {
        shape {
          dim {
            size: 32
          }
        }
      }
    }
  }
  attr {
    key: "dtype"
    value {
      type: DT_FLOAT
    }
  }
  attr {
    key: "value"
    value {
      tensor {
        dtype: DT_FLOAT
        tensor_shape {
          dim {
            size: 32
          }
        }
      }
    }
  }
}
node {
  name: "conv_1/batchnorm/moving_mean"
  op: "Const"
  attr {
    key: "_output_shapes"
    value {
      list {
        shape {
          dim {
            size: 32
          }
        }
      }
    }
  }
  attr {
    key: "dtype"
    value {
      type: DT_FLOAT
    }
  }
  attr {
    key: "value"
    value {
      tensor {
        dtype: DT_FLOAT
        tensor_shape {
          dim {
            size: 32
          }
        }
      }
    }
  }
}
node {
  name: "conv_1/batchnorm/moving_variance"
  op: "Const"
  attr {
    key: "_output_shapes"
    value {
      list {
        shape {
          dim {
            size: 32
          }
        }
      }
    }
  }
  attr {
    key: "dtype"
    value {
      type: DT_FLOAT
    }
  }
  attr {
    key: "value"
    value {
      tensor {
        dtype: DT_FLOAT
        tensor_shape {
          dim {
            size: 32
          }
        }
      }
    }
  }
}
node {
  name: "conv_1/batchnorm"
  op: "BatchNormWithGlobalNormalization"
  input: "conv_1/Conv2D"
  input: "conv_1/batchnorm/moving_mean"
  input: "conv_1/batchnorm/moving_variance"
  input: "conv_1/batchnorm/beta"
  input: "conv_1/batchnorm/gamma"
  attr {
    key: "T"
    value {
      type: DT_FLOAT
    }
  }
  attr {
    key: "_output_shapes"
    value {
      list {
        shape {
          dim {
            size: 1
          }
          dim {
            size: 147
          }
          dim {
            size: 147
          }
          dim {
            size: 32
          }
        }
      }
    }
  }
  attr {
    key: "scale_after_normalization"
    value {
      b: false
    }
  }
  attr {
    key: "variance_epsilon"
    value {
      f: 0.0010000000475
    }
  }
}
node {
  name: "conv_1/CheckNumerics"
  op: "CheckNumerics"
  input: "conv_1/batchnorm"
  attr {
    key: "T"
    value {
      type: DT_FLOAT
    }
  }
  attr {
    key: "_output_shapes"
    value {
      list {
        shape {
          dim {
            size: 1
          }
          dim {
            size: 147
          }
          dim {
            size: 147
          }
          dim {
            size: 32
          }
        }
      }
    }
  }
  attr {
    key: "message"
    value {
      s: "activation input is not finite."
    }
  }
}
node {
  name: "conv_1/control_dependency"
  op: "Identity"
  input: "conv_1/batchnorm"
  input: "^conv_1/CheckNumerics"
  attr {
    key: "T"
    value {
      type: DT_FLOAT
    }
  }
  attr {
    key: "_output_shapes"
    value {
      list {
        shape {
          dim {
            size: 1
          }
          dim {
            size: 147
          }
          dim {
            size: 147
          }
          dim {
            size: 32
          }
        }
      }
    }
  }
}
node {
  name: "conv_1"
  op: "Relu"
  input: "conv_1/control_dependency"
  attr {
    key: "T"
    value {
      type: DT_FLOAT
    }
  }
  attr {
    key: "_output_shapes"
    value {
      list {
        shape {
          dim {
            size: 1
          }
          dim {
            size: 147
          }
          dim {
            size: 147
          }
          dim {
            size: 32
          }
        }
      }
    }
  }
}
node {
  name: "conv_2/conv2d_params"
  op: "Const"
  attr {
    key: "_output_shapes"
    value {
      list {
        shape {
          dim {
            size: 3
          }
          dim {
            size: 3
          }
          dim {
            size: 32
          }
          dim {
            size: 64
          }
        }
      }
    }
  }
  attr {
    key: "dtype"
    value {
      type: DT_FLOAT
    }
  }
  attr {
    key: "value"
    value {
      tensor {
        dtype: DT_FLOAT
        tensor_shape {
          dim {
            size: 3
          }
          dim {
            size: 3
          }
          dim {
            size: 32
          }
          dim {
            size: 64
          }
        }
      }
    }
  }
}
node {
  name: "conv_2/Conv2D"
  op: "Conv2D"
  input: "conv_1"
  input: "conv_2/conv2d_params"
  attr {
    key: "T"
    value {
      type: DT_FLOAT
    }
  }
  attr {
    key: "_output_shapes"
    value {
      list {
        shape {
          dim {
            size: 1
          }
          dim {
            size: 147
          }
          dim {
            size: 147
          }
          dim {
            size: 64
          }
        }
      }
    }
  }
  attr {
    key: "data_format"
    value {
      s: "NHWC"
    }
  }
  attr {
    key: "dilations"
    value {
      list {
        i: 1
        i: 1
        i: 1
        i: 1
      }
    }
  }
  attr {
    key: "padding"
    value {
      s: "SAME"
    }
  }
  attr {
    key: "strides"
    value {
      list {
        i: 1
        i: 1
        i: 1
        i: 1
      }
    }
  }
  attr {
    key: "use_cudnn_on_gpu"
    value {
      b: true
    }
  }
}
node {
  name: "conv_2/batchnorm/beta"
  op: "Const"
  attr {
    key: "_output_shapes"
    value {
      list {
        shape {
          dim {
            size: 64
          }
        }
      }
    }
  }
  attr {
    key: "dtype"
    value {
      type: DT_FLOAT
    }
  }
  attr {
    key: "value"
    value {
      tensor {
        dtype: DT_FLOAT
        tensor_shape {
          dim {
            size: 64
          }
        }
      }
    }
  }
}
node {
  name: "conv_2/batchnorm/gamma"
  op: "Const"
  attr {
    key: "_output_shapes"
    value {
      list {
        shape {
          dim {
            size: 64
          }
        }
      }
    }
  }
  attr {
    key: "dtype"
    value {
      type: DT_FLOAT
    }
  }
  attr {
    key: "value"
    value {
      tensor {
        dtype: DT_FLOAT
        tensor_shape {
          dim {
            size: 64
          }
        }
      }
    }
  }
}
node {
  name: "conv_2/batchnorm/moving_mean"
  op: "Const"
  attr {
    key: "_output_shapes"
    value {
      list {
        shape {
          dim {
            size: 64
          }
        }
      }
    }
  }
  attr {
    key: "dtype"
    value {
      type: DT_FLOAT
    }
  }
  attr {
    key: "value"
    value {
      tensor {
        dtype: DT_FLOAT
        tensor_shape {
          dim {
            size: 64
          }
        }
      }
    }
  }
}
node {
  name: "conv_2/batchnorm/moving_variance"
  op: "Const"
  attr {
    key: "_output_shapes"
    value {
      list {
        shape {
          dim {
            size: 64
          }
        }
      }
    }
  }
  attr {
    key: "dtype"
    value {
      type: DT_FLOAT
    }
  }
  attr {
    key: "value"
    value {
      tensor {
        dtype: DT_FLOAT
        tensor_shape {
          dim {
            size: 64
          }
        }
      }
    }
  }
}
node {
  name: "conv_2/batchnorm"
  op: "BatchNormWithGlobalNormalization"
  input: "conv_2/Conv2D"
  input: "conv_2/batchnorm/moving_mean"
  input: "conv_2/batchnorm/moving_variance"
  input: "conv_2/batchnorm/beta"
  input: "conv_2/batchnorm/gamma"
  attr {
    key: "T"
    value {
      type: DT_FLOAT
    }
  }
  attr {
    key: "_output_shapes"
    value {
      list {
        shape {
          dim {
            size: 1
          }
          dim {
            size: 147
          }
          dim {
            size: 147
          }
          dim {
            size: 64
          }
        }
      }
    }
  }
  attr {
    key: "scale_after_normalization"
    value {
      b: false
    }
  }
  attr {
    key: "variance_epsilon"
    value {
      f: 0.0010000000475
    }
  }
}
node {
  name: "conv_2/CheckNumerics"
  op: "CheckNumerics"
  input: "conv_2/batchnorm"
  attr {
    key: "T"
    value {
      type: DT_FLOAT
    }
  }
  attr {
    key: "_output_shapes"
    value {
      list {
        shape {
          dim {
            size: 1
          }
          dim {
            size: 147
          }
          dim {
            size: 147
          }
          dim {
            size: 64
          }
        }
      }
    }
  }
  attr {
    key: "message"
    value {
      s: "activation input is not finite."
    }
  }
}
node {
  name: "conv_2/control_dependency"
  op: "Identity"
  input: "conv_2/batchnorm"
  input: "^conv_2/CheckNumerics"
  attr {
    key: "T"
    value {
      type: DT_FLOAT
    }
  }
  attr {
    key: "_output_shapes"
    value {
      list {
        shape {
          dim {
            size: 1
          }
          dim {
            size: 147
          }
          dim {
            size: 147
          }
          dim {
            size: 64
          }
        }
      }
    }
  }
}
node {
  name: "conv_2"
  op: "Relu"
  input: "conv_2/control_dependency"
  attr {
    key: "T"
    value {
      type: DT_FLOAT
    }
  }
  attr {
    key: "_output_shapes"
    value {
      list {
        shape {
          dim {
            size: 1
          }
          dim {
            size: 147
          }
          dim {
            size: 147
          }
          dim {
            size: 64
          }
        }
      }
    }
  }
}
node {
  name: "pool/CheckNumerics"
  op: "CheckNumerics"
  input: "conv_2"
  attr {
    key: "T"
    value {
      type: DT_FLOAT
    }
  }
  attr {
    key: "_output_shapes"
    value {
      list {
        shape {
          dim {
            size: 1
          }
          dim {
            size: 147
          }
          dim {
            size: 147
          }
          dim {
            size: 64
          }
        }
      }
    }
  }
  attr {
    key: "message"
    value {
      s: "MaxPool input is not finite."
    }
  }
}
node {
  name: "pool/control_dependency"
  op: "Identity"
  input: "conv_2"
  input: "^pool/CheckNumerics"
  attr {
    key: "T"
    value {
      type: DT_FLOAT
    }
  }
  attr {
    key: "_output_shapes"
    value {
      list {
        shape {
          dim {
            size: 1
          }
          dim {
            size: 147
          }
          dim {
            size: 147
          }
          dim {
            size: 64
          }
        }
      }
    }
  }
}
node {
  name: "pool"
  op: "MaxPool"
  input: "pool/control_dependency"
  attr {
    key: "T"
    value {
      type: DT_FLOAT
    }
  }
  attr {
    key: "_output_shapes"
    value {
      list {
        shape {
          dim {
            size: 1
          }
          dim {
            size: 73
          }
          dim {
            size: 73
          }
          dim {
            size: 64
          }
        }
      }
    }
  }
  attr {
    key: "data_format"
    value {
      s: "NHWC"
    }
  }
  attr {
    key: "ksize"
    value {
      list {
        i: 1
        i: 3
        i: 3
        i: 1
      }
    }
  }
  attr {
    key: "padding"
    value {
      s: "VALID"
    }
  }
  attr {
    key: "strides"
    value {
      list {
        i: 1
        i: 2
        i: 2
        i: 1
      }
    }
  }
}
node {
  name: "conv_3/conv2d_params"
  op: "Const"
  attr {
    key: "_output_shapes"
    value {
      list {
        shape {
          dim {
            size: 1
          }
          dim {
            size: 1
          }
          dim {
            size: 64
          }
          dim {
            size: 80
          }
        }
      }
    }
  }
  attr {
    key: "dtype"
    value {
      type: DT_FLOAT
    }
  }
  attr {
    key: "value"
    value {
      tensor {
        dtype: DT_FLOAT
        tensor_shape {
          dim {
            size: 1
          }
          dim {
            size: 1
          }
          dim {
            size: 64
          }
          dim {
            size: 80
          }
        }
      }
    }
  }
}
node {
  name: "conv_3/Conv2D"
  op: "Conv2D"
  input: "pool"
  input: "conv_3/conv2d_params"
  attr {
    key: "T"
    value {
      type: DT_FLOAT
    }
  }
  attr {
    key: "_output_shapes"
    value {
      list {
        shape {
          dim {
            size: 1
          }
          dim {
            size: 73
          }
          dim {
            size: 73
          }
          dim {
            size: 80
          }
        }
      }
    }
  }
  attr {
    key: "data_format"
    value {
      s: "NHWC"
    }
  }
  attr {
    key: "dilations"
    value {
      list {
        i: 1
        i: 1
        i: 1
        i: 1
      }
    }
  }
  attr {
    key: "padding"
    value {
      s: "VALID"
    }
  }
  attr {
    key: "strides"
    value {
      list {
        i: 1
        i: 1
        i: 1
        i: 1
      }
    }
  }
  attr {
    key: "use_cudnn_on_gpu"
    value {
      b: true
    }
  }
}
node {
  name: "conv_3/batchnorm/beta"
  op: "Const"
  attr {
    key: "_output_shapes"
    value {
      list {
        shape {
          dim {
            size: 80
          }
        }
      }
    }
  }
  attr {
    key: "dtype"
    value {
      type: DT_FLOAT
    }
  }
  attr {
    key: "value"
    value {
      tensor {
        dtype: DT_FLOAT
        tensor_shape {
          dim {
            size: 80
          }
        }
      }
    }
  }
}
node {
  name: "conv_3/batchnorm/gamma"
  op: "Const"
  attr {
    key: "_output_shapes"
    value {
      list {
        shape {
          dim {
            size: 80
          }
        }
      }
    }
  }
  attr {
    key: "dtype"
    value {
      type: DT_FLOAT
    }
  }
  attr {
    key: "value"
    value {
      tensor {
        dtype: DT_FLOAT
        tensor_shape {
          dim {
            size: 80
          }
        }
      }
    }
  }
}
node {
  name: "conv_3/batchnorm/moving_mean"
  op: "Const"
  attr {
    key: "_output_shapes"
    value {
      list {
        shape {
          dim {
            size: 80
          }
        }
      }
    }
  }
  attr {
    key: "dtype"
    value {
      type: DT_FLOAT
    }
  }
  attr {
    key: "value"
    value {
      tensor {
        dtype: DT_FLOAT
        tensor_shape {
          dim {
            size: 80
          }
        }
      }
    }
  }
}
node {
  name: "conv_3/batchnorm/moving_variance"
  op: "Const"
  attr {
    key: "_output_shapes"
    value {
      list {
        shape {
          dim {
            size: 80
          }
        }
      }
    }
  }
  attr {
    key: "dtype"
    value {
      type: DT_FLOAT
    }
  }
  attr {
    key: "value"
    value {
      tensor {
        dtype: DT_FLOAT
        tensor_shape {
          dim {
            size: 80
          }
        }
      }
    }
  }
}
node {
  name: "conv_3/batchnorm"
  op: "BatchNormWithGlobalNormalization"
  input: "conv_3/Conv2D"
  input: "conv_3/batchnorm/moving_mean"
  input: "conv_3/batchnorm/moving_variance"
  input: "conv_3/batchnorm/beta"
  input: "conv_3/batchnorm/gamma"
  attr {
    key: "T"
    value {
      type: DT_FLOAT
    }
  }
  attr {
    key: "_output_shapes"
    value {
      list {
        shape {
          dim {
            size: 1
          }
          dim {
            size: 73
          }
          dim {
            size: 73
          }
          dim {
            size: 80
          }
        }
      }
    }
  }
  attr {
    key: "scale_after_normalization"
    value {
      b: false
    }
  }
  attr {
    key: "variance_epsilon"
    value {
      f: 0.0010000000475
    }
  }
}
node {
  name: "conv_3/CheckNumerics"
  op: "CheckNumerics"
  input: "conv_3/batchnorm"
  attr {
    key: "T"
    value {
      type: DT_FLOAT
    }
  }
  attr {
    key: "_output_shapes"
    value {
      list {
        shape {
          dim {
            size: 1
          }
          dim {
            size: 73
          }
          dim {
            size: 73
          }
          dim {
            size: 80
          }
        }
      }
    }
  }
  attr {
    key: "message"
    value {
      s: "activation input is not finite."
    }
  }
}
node {
  name: "conv_3/control_dependency"
  op: "Identity"
  input: "conv_3/batchnorm"
  input: "^conv_3/CheckNumerics"
  attr {
    key: "T"
    value {
      type: DT_FLOAT
    }
  }
  attr {
    key: "_output_shapes"
    value {
      list {
        shape {
          dim {
            size: 1
          }
          dim {
            size: 73
          }
          dim {
            size: 73
          }
          dim {
            size: 80
          }
        }
      }
    }
  }
}
node {
  name: "conv_3"
  op: "Relu"
  input: "conv_3/control_dependency"
  attr {
    key: "T"
    value {
      type: DT_FLOAT
    }
  }
  attr {
    key: "_output_shapes"
    value {
      list {
        shape {
          dim {
            size: 1
          }
          dim {
            size: 73
          }
          dim {
            size: 73
          }
          dim {
            size: 80
          }
        }
      }
    }
  }
}
node {
  name: "conv_4/conv2d_params"
  op: "Const"
  attr {
    key: "_output_shapes"
    value {
      list {
        shape {
          dim {
            size: 3
          }
          dim {
            size: 3
          }
          dim {
            size: 80
          }
          dim {
            size: 192
          }
        }
      }
    }
  }
  attr {
    key: "dtype"
    value {
      type: DT_FLOAT
    }
  }
  attr {
    key: "value"
    value {
      tensor {
        dtype: DT_FLOAT
        tensor_shape {
          dim {
            size: 3
          }
          dim {
            size: 3
          }
          dim {
            size: 80
          }
          dim {
            size: 192
          }
        }
      }
    }
  }
}
node {
  name: "conv_4/Conv2D"
  op: "Conv2D"
  input: "conv_3"
  input: "conv_4/conv2d_params"
  attr {
    key: "T"
    value {
      type: DT_FLOAT
    }
  }
  attr {
    key: "_output_shapes"
    value {
      list {
        shape {
          dim {
            size: 1
          }
          dim {
            size: 71
          }
          dim {
            size: 71
          }
          dim {
            size: 192
          }
        }
      }
    }
  }
  attr {
    key: "data_format"
    value {
      s: "NHWC"
    }
  }
  attr {
    key: "dilations"
    value {
      list {
        i: 1
        i: 1
        i: 1
        i: 1
      }
    }
  }
  attr {
    key: "padding"
    value {
      s: "VALID"
    }
  }
  attr {
    key: "strides"
    value {
      list {
        i: 1
        i: 1
        i: 1
        i: 1
      }
    }
  }
  attr {
    key: "use_cudnn_on_gpu"
    value {
      b: true
    }
  }
}
node {
  name: "conv_4/batchnorm/beta"
  op: "Const"
  attr {
    key: "_output_shapes"
    value {
      list {
        shape {
          dim {
            size: 192
          }
        }
      }
    }
  }
  attr {
    key: "dtype"
    value {
      type: DT_FLOAT
    }
  }
  attr {
    key: "value"
    value {
      tensor {
        dtype: DT_FLOAT
        tensor_shape {
          dim {
            size: 192
          }
        }
      }
    }
  }
}
node {
  name: "conv_4/batchnorm/gamma"
  op: "Const"
  attr {
    key: "_output_shapes"
    value {
      list {
        shape {
          dim {
            size: 192
          }
        }
      }
    }
  }
  attr {
    key: "dtype"
    value {
      type: DT_FLOAT
    }
  }
  attr {
    key: "value"
    value {
      tensor {
        dtype: DT_FLOAT
        tensor_shape {
          dim {
            size: 192
          }
        }
      }
    }
  }
}
node {
  name: "conv_4/batchnorm/moving_mean"
  op: "Const"
  attr {
    key: "_output_shapes"
    value {
      list {
        shape {
          dim {
            size: 192
          }
        }
      }
    }
  }
  attr {
    key: "dtype"
    value {
      type: DT_FLOAT
    }
  }
  attr {
    key: "value"
    value {
      tensor {
        dtype: DT_FLOAT
        tensor_shape {
          dim {
            size: 192
          }
        }
      }
    }
  }
}
node {
  name: "conv_4/batchnorm/moving_variance"
  op: "Const"
  attr {
    key: "_output_shapes"
    value {
      list {
        shape {
          dim {
            size: 192
          }
        }
      }
    }
  }
  attr {
    key: "dtype"
    value {
      type: DT_FLOAT
    }
  }
  attr {
    key: "value"
    value {
      tensor {
        dtype: DT_FLOAT
        tensor_shape {
          dim {
            size: 192
          }
        }
      }
    }
  }
}
node {
  name: "conv_4/batchnorm"
  op: "BatchNormWithGlobalNormalization"
  input: "conv_4/Conv2D"
  input: "conv_4/batchnorm/moving_mean"
  input: "conv_4/batchnorm/moving_variance"
  input: "conv_4/batchnorm/beta"
  input: "conv_4/batchnorm/gamma"
  attr {
    key: "T"
    value {
      type: DT_FLOAT
    }
  }
  attr {
    key: "_output_shapes"
    value {
      list {
        shape {
          dim {
            size: 1
          }
          dim {
            size: 71
          }
          dim {
            size: 71
          }
          dim {
            size: 192
          }
        }
      }
    }
  }
  attr {
    key: "scale_after_normalization"
    value {
      b: false
    }
  }
  attr {
    key: "variance_epsilon"
    value {
      f: 0.0010000000475
    }
  }
}
node {
  name: "conv_4/CheckNumerics"
  op: "CheckNumerics"
  input: "conv_4/batchnorm"
  attr {
    key: "T"
    value {
      type: DT_FLOAT
    }
  }
  attr {
    key: "_output_shapes"
    value {
      list {
        shape {
          dim {
            size: 1
          }
          dim {
            size: 71
          }
          dim {
            size: 71
          }
          dim {
            size: 192
          }
        }
      }
    }
  }
  attr {
    key: "message"
    value {
      s: "activation input is not finite."
    }
  }
}
node {
  name: "conv_4/control_dependency"
  op: "Identity"
  input: "conv_4/batchnorm"
  input: "^conv_4/CheckNumerics"
  attr {
    key: "T"
    value {
      type: DT_FLOAT
    }
  }
  attr {
    key: "_output_shapes"
    value {
      list {
        shape {
          dim {
            size: 1
          }
          dim {
            size: 71
          }
          dim {
            size: 71
          }
          dim {
            size: 192
          }
        }
      }
    }
  }
}
node {
  name: "conv_4"
  op: "Relu"
  input: "conv_4/control_dependency"
  attr {
    key: "T"
    value {
      type: DT_FLOAT
    }
  }
  attr {
    key: "_output_shapes"
    value {
      list {
        shape {
          dim {
            size: 1
          }
          dim {
            size: 71
          }
          dim {
            size: 71
          }
          dim {
            size: 192
          }
        }
      }
    }
  }
}
node {
  name: "pool_1/CheckNumerics"
  op: "CheckNumerics"
  input: "conv_4"
  attr {
    key: "T"
    value {
      type: DT_FLOAT
    }
  }
  attr {
    key: "_output_shapes"
    value {
      list {
        shape {
          dim {
            size: 1
          }
          dim {
            size: 71
          }
          dim {
            size: 71
          }
          dim {
            size: 192
          }
        }
      }
    }
  }
  attr {
    key: "message"
    value {
      s: "MaxPool input is not finite."
    }
  }
}
node {
  name: "pool_1/control_dependency"
  op: "Identity"
  input: "conv_4"
  input: "^pool_1/CheckNumerics"
  attr {
    key: "T"
    value {
      type: DT_FLOAT
    }
  }
  attr {
    key: "_output_shapes"
    value {
      list {
        shape {
          dim {
            size: 1
          }
          dim {
            size: 71
          }
          dim {
            size: 71
          }
          dim {
            size: 192
          }
        }
      }
    }
  }
}
node {
  name: "pool_1"
  op: "MaxPool"
  input: "pool_1/control_dependency"
  attr {
    key: "T"
    value {
      type: DT_FLOAT
    }
  }
  attr {
    key: "_output_shapes"
    value {
      list {
        shape {
          dim {
            size: 1
          }
          dim {
            size: 35
          }
          dim {
            size: 35
          }
          dim {
            size: 192
          }
        }
      }
    }
  }
  attr {
    key: "data_format"
    value {
      s: "NHWC"
    }
  }
  attr {
    key: "ksize"
    value {
      list {
        i: 1
        i: 3
        i: 3
        i: 1
      }
    }
  }
  attr {
    key: "padding"
    value {
      s: "VALID"
    }
  }
  attr {
    key: "strides"
    value {
      list {
        i: 1
        i: 2
        i: 2
        i: 1
      }
    }
  }
}
node {
  name: "mixed/conv/conv2d_params"
  op: "Const"
  attr {
    key: "_output_shapes"
    value {
      list {
        shape {
          dim {
            size: 1
          }
          dim {
            size: 1
          }
          dim {
            size: 192
          }
          dim {
            size: 64
          }
        }
      }
    }
  }
  attr {
    key: "dtype"
    value {
      type: DT_FLOAT
    }
  }
  attr {
    key: "value"
    value {
      tensor {
        dtype: DT_FLOAT
        tensor_shape {
          dim {
            size: 1
          }
          dim {
            size: 1
          }
          dim {
            size: 192
          }
          dim {
            size: 64
          }
        }
      }
    }
  }
}
node {
  name: "mixed/conv/Conv2D"
  op: "Conv2D"
  input: "pool_1"
  input: "mixed/conv/conv2d_params"
  attr {
    key: "T"
    value {
      type: DT_FLOAT
    }
  }
  attr {
    key: "_output_shapes"
    value {
      list {
        shape {
          dim {
            size: 1
          }
          dim {
            size: 35
          }
          dim {
            size: 35
          }
          dim {
            size: 64
          }
        }
      }
    }
  }
  attr {
    key: "data_format"
    value {
      s: "NHWC"
    }
  }
  attr {
    key: "dilations"
    value {
      list {
        i: 1
        i: 1
        i: 1
        i: 1
      }
    }
  }
  attr {
    key: "padding"
    value {
      s: "SAME"
    }
  }
  attr {
    key: "strides"
    value {
      list {
        i: 1
        i: 1
        i: 1
        i: 1
      }
    }
  }
  attr {
    key: "use_cudnn_on_gpu"
    value {
      b: true
    }
  }
}
node {
  name: "mixed/conv/batchnorm/beta"
  op: "Const"
  attr {
    key: "_output_shapes"
    value {
      list {
        shape {
          dim {
            size: 64
          }
        }
      }
    }
  }
  attr {
    key: "dtype"
    value {
      type: DT_FLOAT
    }
  }
  attr {
    key: "value"
    value {
      tensor {
        dtype: DT_FLOAT
        tensor_shape {
          dim {
            size: 64
          }
        }
      }
    }
  }
}
node {
  name: "mixed/conv/batchnorm/gamma"
  op: "Const"
  attr {
    key: "_output_shapes"
    value {
      list {
        shape {
          dim {
            size: 64
          }
        }
      }
    }
  }
  attr {
    key: "dtype"
    value {
      type: DT_FLOAT
    }
  }
  attr {
    key: "value"
    value {
      tensor {
        dtype: DT_FLOAT
        tensor_shape {
          dim {
            size: 64
          }
        }
      }
    }
  }
}
node {
  name: "mixed/conv/batchnorm/moving_mean"
  op: "Const"
  attr {
    key: "_output_shapes"
    value {
      list {
        shape {
          dim {
            size: 64
          }
        }
      }
    }
  }
  attr {
    key: "dtype"
    value {
      type: DT_FLOAT
    }
  }
  attr {
    key: "value"
    value {
      tensor {
        dtype: DT_FLOAT
        tensor_shape {
          dim {
            size: 64
          }
        }
      }
    }
  }
}
node {
  name: "mixed/conv/batchnorm/moving_variance"
  op: "Const"
  attr {
    key: "_output_shapes"
    value {
      list {
        shape {
          dim {
            size: 64
          }
        }
      }
    }
  }
  attr {
    key: "dtype"
    value {
      type: DT_FLOAT
    }
  }
  attr {
    key: "value"
    value {
      tensor {
        dtype: DT_FLOAT
        tensor_shape {
          dim {
            size: 64
          }
        }
      }
    }
  }
}
node {
  name: "mixed/conv/batchnorm"
  op: "BatchNormWithGlobalNormalization"
  input: "mixed/conv/Conv2D"
  input: "mixed/conv/batchnorm/moving_mean"
  input: "mixed/conv/batchnorm/moving_variance"
  input: "mixed/conv/batchnorm/beta"
  input: "mixed/conv/batchnorm/gamma"
  attr {
    key: "T"
    value {
      type: DT_FLOAT
    }
  }
  attr {
    key: "_output_shapes"
    value {
      list {
        shape {
          dim {
            size: 1
          }
          dim {
            size: 35
          }
          dim {
            size: 35
          }
          dim {
            size: 64
          }
        }
      }
    }
  }
  attr {
    key: "scale_after_normalization"
    value {
      b: false
    }
  }
  attr {
    key: "variance_epsilon"
    value {
      f: 0.0010000000475
    }
  }
}
node {
  name: "mixed/conv/CheckNumerics"
  op: "CheckNumerics"
  input: "mixed/conv/batchnorm"
  attr {
    key: "T"
    value {
      type: DT_FLOAT
    }
  }
  attr {
    key: "_output_shapes"
    value {
      list {
        shape {
          dim {
            size: 1
          }
          dim {
            size: 35
          }
          dim {
            size: 35
          }
          dim {
            size: 64
          }
        }
      }
    }
  }
  attr {
    key: "message"
    value {
      s: "activation input is not finite."
    }
  }
}
node {
  name: "mixed/conv/control_dependency"
  op: "Identity"
  input: "mixed/conv/batchnorm"
  input: "^mixed/conv/CheckNumerics"
  attr {
    key: "T"
    value {
      type: DT_FLOAT
    }
  }
  attr {
    key: "_output_shapes"
    value {
      list {
        shape {
          dim {
            size: 1
          }
          dim {
            size: 35
          }
          dim {
            size: 35
          }
          dim {
            size: 64
          }
        }
      }
    }
  }
}
node {
  name: "mixed/conv"
  op: "Relu"
  input: "mixed/conv/control_dependency"
  attr {
    key: "T"
    value {
      type: DT_FLOAT
    }
  }
  attr {
    key: "_output_shapes"
    value {
      list {
        shape {
          dim {
            size: 1
          }
          dim {
            size: 35
          }
          dim {
            size: 35
          }
          dim {
            size: 64
          }
        }
      }
    }
  }
}
node {
  name: "mixed/tower/conv/conv2d_params"
  op: "Const"
  attr {
    key: "_output_shapes"
    value {
      list {
        shape {
          dim {
            size: 1
          }
          dim {
            size: 1
          }
          dim {
            size: 192
          }
          dim {
            size: 48
          }
        }
      }
    }
  }
  attr {
    key: "dtype"
    value {
      type: DT_FLOAT
    }
  }
  attr {
    key: "value"
    value {
      tensor {
        dtype: DT_FLOAT
        tensor_shape {
          dim {
            size: 1
          }
          dim {
            size: 1
          }
          dim {
            size: 192
          }
          dim {
            size: 48
          }
        }
      }
    }
  }
}
node {
  name: "mixed/tower/conv/Conv2D"
  op: "Conv2D"
  input: "pool_1"
  input: "mixed/tower/conv/conv2d_params"
  attr {
    key: "T"
    value {
      type: DT_FLOAT
    }
  }
  attr {
    key: "_output_shapes"
    value {
      list {
        shape {
          dim {
            size: 1
          }
          dim {
            size: 35
          }
          dim {
            size: 35
          }
          dim {
            size: 48
          }
        }
      }
    }
  }
  attr {
    key: "data_format"
    value {
      s: "NHWC"
    }
  }
  attr {
    key: "dilations"
    value {
      list {
        i: 1
        i: 1
        i: 1
        i: 1
      }
    }
  }
  attr {
    key: "padding"
    value {
      s: "SAME"
    }
  }
  attr {
    key: "strides"
    value {
      list {
        i: 1
        i: 1
        i: 1
        i: 1
      }
    }
  }
  attr {
    key: "use_cudnn_on_gpu"
    value {
      b: true
    }
  }
}
node {
  name: "mixed/tower/conv/batchnorm/beta"
  op: "Const"
  attr {
    key: "_output_shapes"
    value {
      list {
        shape {
          dim {
            size: 48
          }
        }
      }
    }
  }
  attr {
    key: "dtype"
    value {
      type: DT_FLOAT
    }
  }
  attr {
    key: "value"
    value {
      tensor {
        dtype: DT_FLOAT
        tensor_shape {
          dim {
            size: 48
          }
        }
      }
    }
  }
}
node {
  name: "mixed/tower/conv/batchnorm/gamma"
  op: "Const"
  attr {
    key: "_output_shapes"
    value {
      list {
        shape {
          dim {
            size: 48
          }
        }
      }
    }
  }
  attr {
    key: "dtype"
    value {
      type: DT_FLOAT
    }
  }
  attr {
    key: "value"
    value {
      tensor {
        dtype: DT_FLOAT
        tensor_shape {
          dim {
            size: 48
          }
        }
      }
    }
  }
}
node {
  name: "mixed/tower/conv/batchnorm/moving_mean"
  op: "Const"
  attr {
    key: "_output_shapes"
    value {
      list {
        shape {
          dim {
            size: 48
          }
        }
      }
    }
  }
  attr {
    key: "dtype"
    value {
      type: DT_FLOAT
    }
  }
  attr {
    key: "value"
    value {
      tensor {
        dtype: DT_FLOAT
        tensor_shape {
          dim {
            size: 48
          }
        }
      }
    }
  }
}
node {
  name: "mixed/tower/conv/batchnorm/moving_variance"
  op: "Const"
  attr {
    key: "_output_shapes"
    value {
      list {
        shape {
          dim {
            size: 48
          }
        }
      }
    }
  }
  attr {
    key: "dtype"
    value {
      type: DT_FLOAT
    }
  }
  attr {
    key: "value"
    value {
      tensor {
        dtype: DT_FLOAT
        tensor_shape {
          dim {
            size: 48
          }
        }
      }
    }
  }
}
node {
  name: "mixed/tower/conv/batchnorm"
  op: "BatchNormWithGlobalNormalization"
  input: "mixed/tower/conv/Conv2D"
  input: "mixed/tower/conv/batchnorm/moving_mean"
  input: "mixed/tower/conv/batchnorm/moving_variance"
  input: "mixed/tower/conv/batchnorm/beta"
  input: "mixed/tower/conv/batchnorm/gamma"
  attr {
    key: "T"
    value {
      type: DT_FLOAT
    }
  }
  attr {
    key: "_output_shapes"
    value {
      list {
        shape {
          dim {
            size: 1
          }
          dim {
            size: 35
          }
          dim {
            size: 35
          }
          dim {
            size: 48
          }
        }
      }
    }
  }
  attr {
    key: "scale_after_normalization"
    value {
      b: false
    }
  }
  attr {
    key: "variance_epsilon"
    value {
      f: 0.0010000000475
    }
  }
}
node {
  name: "mixed/tower/conv/CheckNumerics"
  op: "CheckNumerics"
  input: "mixed/tower/conv/batchnorm"
  attr {
    key: "T"
    value {
      type: DT_FLOAT
    }
  }
  attr {
    key: "_output_shapes"
    value {
      list {
        shape {
          dim {
            size: 1
          }
          dim {
            size: 35
          }
          dim {
            size: 35
          }
          dim {
            size: 48
          }
        }
      }
    }
  }
  attr {
    key: "message"
    value {
      s: "activation input is not finite."
    }
  }
}
node {
  name: "mixed/tower/conv/control_dependency"
  op: "Identity"
  input: "mixed/tower/conv/batchnorm"
  input: "^mixed/tower/conv/CheckNumerics"
  attr {
    key: "T"
    value {
      type: DT_FLOAT
    }
  }
  attr {
    key: "_output_shapes"
    value {
      list {
        shape {
          dim {
            size: 1
          }
          dim {
            size: 35
          }
          dim {
            size: 35
          }
          dim {
            size: 48
          }
        }
      }
    }
  }
}
node {
  name: "mixed/tower/conv"
  op: "Relu"
  input: "mixed/tower/conv/control_dependency"
  attr {
    key: "T"
    value {
      type: DT_FLOAT
    }
  }
  attr {
    key: "_output_shapes"
    value {
      list {
        shape {
          dim {
            size: 1
          }
          dim {
            size: 35
          }
          dim {
            size: 35
          }
          dim {
            size: 48
          }
        }
      }
    }
  }
}
node {
  name: "mixed/tower/conv_1/conv2d_params"
  op: "Const"
  attr {
    key: "_output_shapes"
    value {
      list {
        shape {
          dim {
            size: 5
          }
          dim {
            size: 5
          }
          dim {
            size: 48
          }
          dim {
            size: 64
          }
        }
      }
    }
  }
  attr {
    key: "dtype"
    value {
      type: DT_FLOAT
    }
  }
  attr {
    key: "value"
    value {
      tensor {
        dtype: DT_FLOAT
        tensor_shape {
          dim {
            size: 5
          }
          dim {
            size: 5
          }
          dim {
            size: 48
          }
          dim {
            size: 64
          }
        }
      }
    }
  }
}
node {
  name: "mixed/tower/conv_1/Conv2D"
  op: "Conv2D"
  input: "mixed/tower/conv"
  input: "mixed/tower/conv_1/conv2d_params"
  attr {
    key: "T"
    value {
      type: DT_FLOAT
    }
  }
  attr {
    key: "_output_shapes"
    value {
      list {
        shape {
          dim {
            size: 1
          }
          dim {
            size: 35
          }
          dim {
            size: 35
          }
          dim {
            size: 64
          }
        }
      }
    }
  }
  attr {
    key: "data_format"
    value {
      s: "NHWC"
    }
  }
  attr {
    key: "dilations"
    value {
      list {
        i: 1
        i: 1
        i: 1
        i: 1
      }
    }
  }
  attr {
    key: "padding"
    value {
      s: "SAME"
    }
  }
  attr {
    key: "strides"
    value {
      list {
        i: 1
        i: 1
        i: 1
        i: 1
      }
    }
  }
  attr {
    key: "use_cudnn_on_gpu"
    value {
      b: true
    }
  }
}
node {
  name: "mixed/tower/conv_1/batchnorm/beta"
  op: "Const"
  attr {
    key: "_output_shapes"
    value {
      list {
        shape {
          dim {
            size: 64
          }
        }
      }
    }
  }
  attr {
    key: "dtype"
    value {
      type: DT_FLOAT
    }
  }
  attr {
    key: "value"
    value {
      tensor {
        dtype: DT_FLOAT
        tensor_shape {
          dim {
            size: 64
          }
        }
      }
    }
  }
}
node {
  name: "mixed/tower/conv_1/batchnorm/gamma"
  op: "Const"
  attr {
    key: "_output_shapes"
    value {
      list {
        shape {
          dim {
            size: 64
          }
        }
      }
    }
  }
  attr {
    key: "dtype"
    value {
      type: DT_FLOAT
    }
  }
  attr {
    key: "value"
    value {
      tensor {
        dtype: DT_FLOAT
        tensor_shape {
          dim {
            size: 64
          }
        }
      }
    }
  }
}
node {
  name: "mixed/tower/conv_1/batchnorm/moving_mean"
  op: "Const"
  attr {
    key: "_output_shapes"
    value {
      list {
        shape {
          dim {
            size: 64
          }
        }
      }
    }
  }
  attr {
    key: "dtype"
    value {
      type: DT_FLOAT
    }
  }
  attr {
    key: "value"
    value {
      tensor {
        dtype: DT_FLOAT
        tensor_shape {
          dim {
            size: 64
          }
        }
      }
    }
  }
}
node {
  name: "mixed/tower/conv_1/batchnorm/moving_variance"
  op: "Const"
  attr {
    key: "_output_shapes"
    value {
      list {
        shape {
          dim {
            size: 64
          }
        }
      }
    }
  }
  attr {
    key: "dtype"
    value {
      type: DT_FLOAT
    }
  }
  attr {
    key: "value"
    value {
      tensor {
        dtype: DT_FLOAT
        tensor_shape {
          dim {
            size: 64
          }
        }
      }
    }
  }
}
node {
  name: "mixed/tower/conv_1/batchnorm"
  op: "BatchNormWithGlobalNormalization"
  input: "mixed/tower/conv_1/Conv2D"
  input: "mixed/tower/conv_1/batchnorm/moving_mean"
  input: "mixed/tower/conv_1/batchnorm/moving_variance"
  input: "mixed/tower/conv_1/batchnorm/beta"
  input: "mixed/tower/conv_1/batchnorm/gamma"
  attr {
    key: "T"
    value {
      type: DT_FLOAT
    }
  }
  attr {
    key: "_output_shapes"
    value {
      list {
        shape {
          dim {
            size: 1
          }
          dim {
            size: 35
          }
          dim {
            size: 35
          }
          dim {
            size: 64
          }
        }
      }
    }
  }
  attr {
    key: "scale_after_normalization"
    value {
      b: false
    }
  }
  attr {
    key: "variance_epsilon"
    value {
      f: 0.0010000000475
    }
  }
}
node {
  name: "mixed/tower/conv_1/CheckNumerics"
  op: "CheckNumerics"
  input: "mixed/tower/conv_1/batchnorm"
  attr {
    key: "T"
    value {
      type: DT_FLOAT
    }
  }
  attr {
    key: "_output_shapes"
    value {
      list {
        shape {
          dim {
            size: 1
          }
          dim {
            size: 35
          }
          dim {
            size: 35
          }
          dim {
            size: 64
          }
        }
      }
    }
  }
  attr {
    key: "message"
    value {
      s: "activation input is not finite."
    }
  }
}
node {
  name: "mixed/tower/conv_1/control_dependency"
  op: "Identity"
  input: "mixed/tower/conv_1/batchnorm"
  input: "^mixed/tower/conv_1/CheckNumerics"
  attr {
    key: "T"
    value {
      type: DT_FLOAT
    }
  }
  attr {
    key: "_output_shapes"
    value {
      list {
        shape {
          dim {
            size: 1
          }
          dim {
            size: 35
          }
          dim {
            size: 35
          }
          dim {
            size: 64
          }
        }
      }
    }
  }
}
node {
  name: "mixed/tower/conv_1"
  op: "Relu"
  input: "mixed/tower/conv_1/control_dependency"
  attr {
    key: "T"
    value {
      type: DT_FLOAT
    }
  }
  attr {
    key: "_output_shapes"
    value {
      list {
        shape {
          dim {
            size: 1
          }
          dim {
            size: 35
          }
          dim {
            size: 35
          }
          dim {
            size: 64
          }
        }
      }
    }
  }
}
node {
  name: "mixed/tower_1/conv/conv2d_params"
  op: "Const"
  attr {
    key: "_output_shapes"
    value {
      list {
        shape {
          dim {
            size: 1
          }
          dim {
            size: 1
          }
          dim {
            size: 192
          }
          dim {
            size: 64
          }
        }
      }
    }
  }
  attr {
    key: "dtype"
    value {
      type: DT_FLOAT
    }
  }
  attr {
    key: "value"
    value {
      tensor {
        dtype: DT_FLOAT
        tensor_shape {
          dim {
            size: 1
          }
          dim {
            size: 1
          }
          dim {
            size: 192
          }
          dim {
            size: 64
          }
        }
      }
    }
  }
}
node {
  name: "mixed/tower_1/conv/Conv2D"
  op: "Conv2D"
  input: "pool_1"
  input: "mixed/tower_1/conv/conv2d_params"
  attr {
    key: "T"
    value {
      type: DT_FLOAT
    }
  }
  attr {
    key: "_output_shapes"
    value {
      list {
        shape {
          dim {
            size: 1
          }
          dim {
            size: 35
          }
          dim {
            size: 35
          }
          dim {
            size: 64
          }
        }
      }
    }
  }
  attr {
    key: "data_format"
    value {
      s: "NHWC"
    }
  }
  attr {
    key: "dilations"
    value {
      list {
        i: 1
        i: 1
        i: 1
        i: 1
      }
    }
  }
  attr {
    key: "padding"
    value {
      s: "SAME"
    }
  }
  attr {
    key: "strides"
    value {
      list {
        i: 1
        i: 1
        i: 1
        i: 1
      }
    }
  }
  attr {
    key: "use_cudnn_on_gpu"
    value {
      b: true
    }
  }
}
node {
  name: "mixed/tower_1/conv/batchnorm/beta"
  op: "Const"
  attr {
    key: "_output_shapes"
    value {
      list {
        shape {
          dim {
            size: 64
          }
        }
      }
    }
  }
  attr {
    key: "dtype"
    value {
      type: DT_FLOAT
    }
  }
  attr {
    key: "value"
    value {
      tensor {
        dtype: DT_FLOAT
        tensor_shape {
          dim {
            size: 64
          }
        }
      }
    }
  }
}
node {
  name: "mixed/tower_1/conv/batchnorm/gamma"
  op: "Const"
  attr {
    key: "_output_shapes"
    value {
      list {
        shape {
          dim {
            size: 64
          }
        }
      }
    }
  }
  attr {
    key: "dtype"
    value {
      type: DT_FLOAT
    }
  }
  attr {
    key: "value"
    value {
      tensor {
        dtype: DT_FLOAT
        tensor_shape {
          dim {
            size: 64
          }
        }
      }
    }
  }
}
node {
  name: "mixed/tower_1/conv/batchnorm/moving_mean"
  op: "Const"
  attr {
    key: "_output_shapes"
    value {
      list {
        shape {
          dim {
            size: 64
          }
        }
      }
    }
  }
  attr {
    key: "dtype"
    value {
      type: DT_FLOAT
    }
  }
  attr {
    key: "value"
    value {
      tensor {
        dtype: DT_FLOAT
        tensor_shape {
          dim {
            size: 64
          }
        }
      }
    }
  }
}
node {
  name: "mixed/tower_1/conv/batchnorm/moving_variance"
  op: "Const"
  attr {
    key: "_output_shapes"
    value {
      list {
        shape {
          dim {
            size: 64
          }
        }
      }
    }
  }
  attr {
    key: "dtype"
    value {
      type: DT_FLOAT
    }
  }
  attr {
    key: "value"
    value {
      tensor {
        dtype: DT_FLOAT
        tensor_shape {
          dim {
            size: 64
          }
        }
      }
    }
  }
}
node {
  name: "mixed/tower_1/conv/batchnorm"
  op: "BatchNormWithGlobalNormalization"
  input: "mixed/tower_1/conv/Conv2D"
  input: "mixed/tower_1/conv/batchnorm/moving_mean"
  input: "mixed/tower_1/conv/batchnorm/moving_variance"
  input: "mixed/tower_1/conv/batchnorm/beta"
  input: "mixed/tower_1/conv/batchnorm/gamma"
  attr {
    key: "T"
    value {
      type: DT_FLOAT
    }
  }
  attr {
    key: "_output_shapes"
    value {
      list {
        shape {
          dim {
            size: 1
          }
          dim {
            size: 35
          }
          dim {
            size: 35
          }
          dim {
            size: 64
          }
        }
      }
    }
  }
  attr {
    key: "scale_after_normalization"
    value {
      b: false
    }
  }
  attr {
    key: "variance_epsilon"
    value {
      f: 0.0010000000475
    }
  }
}
node {
  name: "mixed/tower_1/conv/CheckNumerics"
  op: "CheckNumerics"
  input: "mixed/tower_1/conv/batchnorm"
  attr {
    key: "T"
    value {
      type: DT_FLOAT
    }
  }
  attr {
    key: "_output_shapes"
    value {
      list {
        shape {
          dim {
            size: 1
          }
          dim {
            size: 35
          }
          dim {
            size: 35
          }
          dim {
            size: 64
          }
        }
      }
    }
  }
  attr {
    key: "message"
    value {
      s: "activation input is not finite."
    }
  }
}
node {
  name: "mixed/tower_1/conv/control_dependency"
  op: "Identity"
  input: "mixed/tower_1/conv/batchnorm"
  input: "^mixed/tower_1/conv/CheckNumerics"
  attr {
    key: "T"
    value {
      type: DT_FLOAT
    }
  }
  attr {
    key: "_output_shapes"
    value {
      list {
        shape {
          dim {
            size: 1
          }
          dim {
            size: 35
          }
          dim {
            size: 35
          }
          dim {
            size: 64
          }
        }
      }
    }
  }
}
node {
  name: "mixed/tower_1/conv"
  op: "Relu"
  input: "mixed/tower_1/conv/control_dependency"
  attr {
    key: "T"
    value {
      type: DT_FLOAT
    }
  }
  attr {
    key: "_output_shapes"
    value {
      list {
        shape {
          dim {
            size: 1
          }
          dim {
            size: 35
          }
          dim {
            size: 35
          }
          dim {
            size: 64
          }
        }
      }
    }
  }
}
node {
  name: "mixed/tower_1/conv_1/conv2d_params"
  op: "Const"
  attr {
    key: "_output_shapes"
    value {
      list {
        shape {
          dim {
            size: 3
          }
          dim {
            size: 3
          }
          dim {
            size: 64
          }
          dim {
            size: 96
          }
        }
      }
    }
  }
  attr {
    key: "dtype"
    value {
      type: DT_FLOAT
    }
  }
  attr {
    key: "value"
    value {
      tensor {
        dtype: DT_FLOAT
        tensor_shape {
          dim {
            size: 3
          }
          dim {
            size: 3
          }
          dim {
            size: 64
          }
          dim {
            size: 96
          }
        }
      }
    }
  }
}
node {
  name: "mixed/tower_1/conv_1/Conv2D"
  op: "Conv2D"
  input: "mixed/tower_1/conv"
  input: "mixed/tower_1/conv_1/conv2d_params"
  attr {
    key: "T"
    value {
      type: DT_FLOAT
    }
  }
  attr {
    key: "_output_shapes"
    value {
      list {
        shape {
          dim {
            size: 1
          }
          dim {
            size: 35
          }
          dim {
            size: 35
          }
          dim {
            size: 96
          }
        }
      }
    }
  }
  attr {
    key: "data_format"
    value {
      s: "NHWC"
    }
  }
  attr {
    key: "dilations"
    value {
      list {
        i: 1
        i: 1
        i: 1
        i: 1
      }
    }
  }
  attr {
    key: "padding"
    value {
      s: "SAME"
    }
  }
  attr {
    key: "strides"
    value {
      list {
        i: 1
        i: 1
        i: 1
        i: 1
      }
    }
  }
  attr {
    key: "use_cudnn_on_gpu"
    value {
      b: true
    }
  }
}
node {
  name: "mixed/tower_1/conv_1/batchnorm/beta"
  op: "Const"
  attr {
    key: "_output_shapes"
    value {
      list {
        shape {
          dim {
            size: 96
          }
        }
      }
    }
  }
  attr {
    key: "dtype"
    value {
      type: DT_FLOAT
    }
  }
  attr {
    key: "value"
    value {
      tensor {
        dtype: DT_FLOAT
        tensor_shape {
          dim {
            size: 96
          }
        }
      }
    }
  }
}
node {
  name: "mixed/tower_1/conv_1/batchnorm/gamma"
  op: "Const"
  attr {
    key: "_output_shapes"
    value {
      list {
        shape {
          dim {
            size: 96
          }
        }
      }
    }
  }
  attr {
    key: "dtype"
    value {
      type: DT_FLOAT
    }
  }
  attr {
    key: "value"
    value {
      tensor {
        dtype: DT_FLOAT
        tensor_shape {
          dim {
            size: 96
          }
        }
      }
    }
  }
}
node {
  name: "mixed/tower_1/conv_1/batchnorm/moving_mean"
  op: "Const"
  attr {
    key: "_output_shapes"
    value {
      list {
        shape {
          dim {
            size: 96
          }
        }
      }
    }
  }
  attr {
    key: "dtype"
    value {
      type: DT_FLOAT
    }
  }
  attr {
    key: "value"
    value {
      tensor {
        dtype: DT_FLOAT
        tensor_shape {
          dim {
            size: 96
          }
        }
      }
    }
  }
}
node {
  name: "mixed/tower_1/conv_1/batchnorm/moving_variance"
  op: "Const"
  attr {
    key: "_output_shapes"
    value {
      list {
        shape {
          dim {
            size: 96
          }
        }
      }
    }
  }
  attr {
    key: "dtype"
    value {
      type: DT_FLOAT
    }
  }
  attr {
    key: "value"
    value {
      tensor {
        dtype: DT_FLOAT
        tensor_shape {
          dim {
            size: 96
          }
        }
      }
    }
  }
}
node {
  name: "mixed/tower_1/conv_1/batchnorm"
  op: "BatchNormWithGlobalNormalization"
  input: "mixed/tower_1/conv_1/Conv2D"
  input: "mixed/tower_1/conv_1/batchnorm/moving_mean"
  input: "mixed/tower_1/conv_1/batchnorm/moving_variance"
  input: "mixed/tower_1/conv_1/batchnorm/beta"
  input: "mixed/tower_1/conv_1/batchnorm/gamma"
  attr {
    key: "T"
    value {
      type: DT_FLOAT
    }
  }
  attr {
    key: "_output_shapes"
    value {
      list {
        shape {
          dim {
            size: 1
          }
          dim {
            size: 35
          }
          dim {
            size: 35
          }
          dim {
            size: 96
          }
        }
      }
    }
  }
  attr {
    key: "scale_after_normalization"
    value {
      b: false
    }
  }
  attr {
    key: "variance_epsilon"
    value {
      f: 0.0010000000475
    }
  }
}
node {
  name: "mixed/tower_1/conv_1/CheckNumerics"
  op: "CheckNumerics"
  input: "mixed/tower_1/conv_1/batchnorm"
  attr {
    key: "T"
    value {
      type: DT_FLOAT
    }
  }
  attr {
    key: "_output_shapes"
    value {
      list {
        shape {
          dim {
            size: 1
          }
          dim {
            size: 35
          }
          dim {
            size: 35
          }
          dim {
            size: 96
          }
        }
      }
    }
  }
  attr {
    key: "message"
    value {
      s: "activation input is not finite."
    }
  }
}
node {
  name: "mixed/tower_1/conv_1/control_dependency"
  op: "Identity"
  input: "mixed/tower_1/conv_1/batchnorm"
  input: "^mixed/tower_1/conv_1/CheckNumerics"
  attr {
    key: "T"
    value {
      type: DT_FLOAT
    }
  }
  attr {
    key: "_output_shapes"
    value {
      list {
        shape {
          dim {
            size: 1
          }
          dim {
            size: 35
          }
          dim {
            size: 35
          }
          dim {
            size: 96
          }
        }
      }
    }
  }
}
node {
  name: "mixed/tower_1/conv_1"
  op: "Relu"
  input: "mixed/tower_1/conv_1/control_dependency"
  attr {
    key: "T"
    value {
      type: DT_FLOAT
    }
  }
  attr {
    key: "_output_shapes"
    value {
      list {
        shape {
          dim {
            size: 1
          }
          dim {
            size: 35
          }
          dim {
            size: 35
          }
          dim {
            size: 96
          }
        }
      }
    }
  }
}
node {
  name: "mixed/tower_1/conv_2/conv2d_params"
  op: "Const"
  attr {
    key: "_output_shapes"
    value {
      list {
        shape {
          dim {
            size: 3
          }
          dim {
            size: 3
          }
          dim {
            size: 96
          }
          dim {
            size: 96
          }
        }
      }
    }
  }
  attr {
    key: "dtype"
    value {
      type: DT_FLOAT
    }
  }
  attr {
    key: "value"
    value {
      tensor {
        dtype: DT_FLOAT
        tensor_shape {
          dim {
            size: 3
          }
          dim {
            size: 3
          }
          dim {
            size: 96
          }
          dim {
            size: 96
          }
        }
      }
    }
  }
}
node {
  name: "mixed/tower_1/conv_2/Conv2D"
  op: "Conv2D"
  input: "mixed/tower_1/conv_1"
  input: "mixed/tower_1/conv_2/conv2d_params"
  attr {
    key: "T"
    value {
      type: DT_FLOAT
    }
  }
  attr {
    key: "_output_shapes"
    value {
      list {
        shape {
          dim {
            size: 1
          }
          dim {
            size: 35
          }
          dim {
            size: 35
          }
          dim {
            size: 96
          }
        }
      }
    }
  }
  attr {
    key: "data_format"
    value {
      s: "NHWC"
    }
  }
  attr {
    key: "dilations"
    value {
      list {
        i: 1
        i: 1
        i: 1
        i: 1
      }
    }
  }
  attr {
    key: "padding"
    value {
      s: "SAME"
    }
  }
  attr {
    key: "strides"
    value {
      list {
        i: 1
        i: 1
        i: 1
        i: 1
      }
    }
  }
  attr {
    key: "use_cudnn_on_gpu"
    value {
      b: true
    }
  }
}
node {
  name: "mixed/tower_1/conv_2/batchnorm/beta"
  op: "Const"
  attr {
    key: "_output_shapes"
    value {
      list {
        shape {
          dim {
            size: 96
          }
        }
      }
    }
  }
  attr {
    key: "dtype"
    value {
      type: DT_FLOAT
    }
  }
  attr {
    key: "value"
    value {
      tensor {
        dtype: DT_FLOAT
        tensor_shape {
          dim {
            size: 96
          }
        }
      }
    }
  }
}
node {
  name: "mixed/tower_1/conv_2/batchnorm/gamma"
  op: "Const"
  attr {
    key: "_output_shapes"
    value {
      list {
        shape {
          dim {
            size: 96
          }
        }
      }
    }
  }
  attr {
    key: "dtype"
    value {
      type: DT_FLOAT
    }
  }
  attr {
    key: "value"
    value {
      tensor {
        dtype: DT_FLOAT
        tensor_shape {
          dim {
            size: 96
          }
        }
      }
    }
  }
}
node {
  name: "mixed/tower_1/conv_2/batchnorm/moving_mean"
  op: "Const"
  attr {
    key: "_output_shapes"
    value {
      list {
        shape {
          dim {
            size: 96
          }
        }
      }
    }
  }
  attr {
    key: "dtype"
    value {
      type: DT_FLOAT
    }
  }
  attr {
    key: "value"
    value {
      tensor {
        dtype: DT_FLOAT
        tensor_shape {
          dim {
            size: 96
          }
        }
      }
    }
  }
}
node {
  name: "mixed/tower_1/conv_2/batchnorm/moving_variance"
  op: "Const"
  attr {
    key: "_output_shapes"
    value {
      list {
        shape {
          dim {
            size: 96
          }
        }
      }
    }
  }
  attr {
    key: "dtype"
    value {
      type: DT_FLOAT
    }
  }
  attr {
    key: "value"
    value {
      tensor {
        dtype: DT_FLOAT
        tensor_shape {
          dim {
            size: 96
          }
        }
      }
    }
  }
}
node {
  name: "mixed/tower_1/conv_2/batchnorm"
  op: "BatchNormWithGlobalNormalization"
  input: "mixed/tower_1/conv_2/Conv2D"
  input: "mixed/tower_1/conv_2/batchnorm/moving_mean"
  input: "mixed/tower_1/conv_2/batchnorm/moving_variance"
  input: "mixed/tower_1/conv_2/batchnorm/beta"
  input: "mixed/tower_1/conv_2/batchnorm/gamma"
  attr {
    key: "T"
    value {
      type: DT_FLOAT
    }
  }
  attr {
    key: "_output_shapes"
    value {
      list {
        shape {
          dim {
            size: 1
          }
          dim {
            size: 35
          }
          dim {
            size: 35
          }
          dim {
            size: 96
          }
        }
      }
    }
  }
  attr {
    key: "scale_after_normalization"
    value {
      b: false
    }
  }
  attr {
    key: "variance_epsilon"
    value {
      f: 0.0010000000475
    }
  }
}
node {
  name: "mixed/tower_1/conv_2/CheckNumerics"
  op: "CheckNumerics"
  input: "mixed/tower_1/conv_2/batchnorm"
  attr {
    key: "T"
    value {
      type: DT_FLOAT
    }
  }
  attr {
    key: "_output_shapes"
    value {
      list {
        shape {
          dim {
            size: 1
          }
          dim {
            size: 35
          }
          dim {
            size: 35
          }
          dim {
            size: 96
          }
        }
      }
    }
  }
  attr {
    key: "message"
    value {
      s: "activation input is not finite."
    }
  }
}
node {
  name: "mixed/tower_1/conv_2/control_dependency"
  op: "Identity"
  input: "mixed/tower_1/conv_2/batchnorm"
  input: "^mixed/tower_1/conv_2/CheckNumerics"
  attr {
    key: "T"
    value {
      type: DT_FLOAT
    }
  }
  attr {
    key: "_output_shapes"
    value {
      list {
        shape {
          dim {
            size: 1
          }
          dim {
            size: 35
          }
          dim {
            size: 35
          }
          dim {
            size: 96
          }
        }
      }
    }
  }
}
node {
  name: "mixed/tower_1/conv_2"
  op: "Relu"
  input: "mixed/tower_1/conv_2/control_dependency"
  attr {
    key: "T"
    value {
      type: DT_FLOAT
    }
  }
  attr {
    key: "_output_shapes"
    value {
      list {
        shape {
          dim {
            size: 1
          }
          dim {
            size: 35
          }
          dim {
            size: 35
          }
          dim {
            size: 96
          }
        }
      }
    }
  }
}
node {
  name: "mixed/tower_2/pool"
  op: "AvgPool"
  input: "pool_1"
  attr {
    key: "T"
    value {
      type: DT_FLOAT
    }
  }
  attr {
    key: "_output_shapes"
    value {
      list {
        shape {
          dim {
            size: 1
          }
          dim {
            size: 35
          }
          dim {
            size: 35
          }
          dim {
            size: 192
          }
        }
      }
    }
  }
  attr {
    key: "data_format"
    value {
      s: "NHWC"
    }
  }
  attr {
    key: "ksize"
    value {
      list {
        i: 1
        i: 3
        i: 3
        i: 1
      }
    }
  }
  attr {
    key: "padding"
    value {
      s: "SAME"
    }
  }
  attr {
    key: "strides"
    value {
      list {
        i: 1
        i: 1
        i: 1
        i: 1
      }
    }
  }
}
node {
  name: "mixed/tower_2/conv/conv2d_params"
  op: "Const"
  attr {
    key: "_output_shapes"
    value {
      list {
        shape {
          dim {
            size: 1
          }
          dim {
            size: 1
          }
          dim {
            size: 192
          }
          dim {
            size: 32
          }
        }
      }
    }
  }
  attr {
    key: "dtype"
    value {
      type: DT_FLOAT
    }
  }
  attr {
    key: "value"
    value {
      tensor {
        dtype: DT_FLOAT
        tensor_shape {
          dim {
            size: 1
          }
          dim {
            size: 1
          }
          dim {
            size: 192
          }
          dim {
            size: 32
          }
        }
      }
    }
  }
}
node {
  name: "mixed/tower_2/conv/Conv2D"
  op: "Conv2D"
  input: "mixed/tower_2/pool"
  input: "mixed/tower_2/conv/conv2d_params"
  attr {
    key: "T"
    value {
      type: DT_FLOAT
    }
  }
  attr {
    key: "_output_shapes"
    value {
      list {
        shape {
          dim {
            size: 1
          }
          dim {
            size: 35
          }
          dim {
            size: 35
          }
          dim {
            size: 32
          }
        }
      }
    }
  }
  attr {
    key: "data_format"
    value {
      s: "NHWC"
    }
  }
  attr {
    key: "dilations"
    value {
      list {
        i: 1
        i: 1
        i: 1
        i: 1
      }
    }
  }
  attr {
    key: "padding"
    value {
      s: "SAME"
    }
  }
  attr {
    key: "strides"
    value {
      list {
        i: 1
        i: 1
        i: 1
        i: 1
      }
    }
  }
  attr {
    key: "use_cudnn_on_gpu"
    value {
      b: true
    }
  }
}
node {
  name: "mixed/tower_2/conv/batchnorm/beta"
  op: "Const"
  attr {
    key: "_output_shapes"
    value {
      list {
        shape {
          dim {
            size: 32
          }
        }
      }
    }
  }
  attr {
    key: "dtype"
    value {
      type: DT_FLOAT
    }
  }
  attr {
    key: "value"
    value {
      tensor {
        dtype: DT_FLOAT
        tensor_shape {
          dim {
            size: 32
          }
        }
      }
    }
  }
}
node {
  name: "mixed/tower_2/conv/batchnorm/gamma"
  op: "Const"
  attr {
    key: "_output_shapes"
    value {
      list {
        shape {
          dim {
            size: 32
          }
        }
      }
    }
  }
  attr {
    key: "dtype"
    value {
      type: DT_FLOAT
    }
  }
  attr {
    key: "value"
    value {
      tensor {
        dtype: DT_FLOAT
        tensor_shape {
          dim {
            size: 32
          }
        }
      }
    }
  }
}
node {
  name: "mixed/tower_2/conv/batchnorm/moving_mean"
  op: "Const"
  attr {
    key: "_output_shapes"
    value {
      list {
        shape {
          dim {
            size: 32
          }
        }
      }
    }
  }
  attr {
    key: "dtype"
    value {
      type: DT_FLOAT
    }
  }
  attr {
    key: "value"
    value {
      tensor {
        dtype: DT_FLOAT
        tensor_shape {
          dim {
            size: 32
          }
        }
      }
    }
  }
}
node {
  name: "mixed/tower_2/conv/batchnorm/moving_variance"
  op: "Const"
  attr {
    key: "_output_shapes"
    value {
      list {
        shape {
          dim {
            size: 32
          }
        }
      }
    }
  }
  attr {
    key: "dtype"
    value {
      type: DT_FLOAT
    }
  }
  attr {
    key: "value"
    value {
      tensor {
        dtype: DT_FLOAT
        tensor_shape {
          dim {
            size: 32
          }
        }
      }
    }
  }
}
node {
  name: "mixed/tower_2/conv/batchnorm"
  op: "BatchNormWithGlobalNormalization"
  input: "mixed/tower_2/conv/Conv2D"
  input: "mixed/tower_2/conv/batchnorm/moving_mean"
  input: "mixed/tower_2/conv/batchnorm/moving_variance"
  input: "mixed/tower_2/conv/batchnorm/beta"
  input: "mixed/tower_2/conv/batchnorm/gamma"
  attr {
    key: "T"
    value {
      type: DT_FLOAT
    }
  }
  attr {
    key: "_output_shapes"
    value {
      list {
        shape {
          dim {
            size: 1
          }
          dim {
            size: 35
          }
          dim {
            size: 35
          }
          dim {
            size: 32
          }
        }
      }
    }
  }
  attr {
    key: "scale_after_normalization"
    value {
      b: false
    }
  }
  attr {
    key: "variance_epsilon"
    value {
      f: 0.0010000000475
    }
  }
}
node {
  name: "mixed/tower_2/conv/CheckNumerics"
  op: "CheckNumerics"
  input: "mixed/tower_2/conv/batchnorm"
  attr {
    key: "T"
    value {
      type: DT_FLOAT
    }
  }
  attr {
    key: "_output_shapes"
    value {
      list {
        shape {
          dim {
            size: 1
          }
          dim {
            size: 35
          }
          dim {
            size: 35
          }
          dim {
            size: 32
          }
        }
      }
    }
  }
  attr {
    key: "message"
    value {
      s: "activation input is not finite."
    }
  }
}
node {
  name: "mixed/tower_2/conv/control_dependency"
  op: "Identity"
  input: "mixed/tower_2/conv/batchnorm"
  input: "^mixed/tower_2/conv/CheckNumerics"
  attr {
    key: "T"
    value {
      type: DT_FLOAT
    }
  }
  attr {
    key: "_output_shapes"
    value {
      list {
        shape {
          dim {
            size: 1
          }
          dim {
            size: 35
          }
          dim {
            size: 35
          }
          dim {
            size: 32
          }
        }
      }
    }
  }
}
node {
  name: "mixed/tower_2/conv"
  op: "Relu"
  input: "mixed/tower_2/conv/control_dependency"
  attr {
    key: "T"
    value {
      type: DT_FLOAT
    }
  }
  attr {
    key: "_output_shapes"
    value {
      list {
        shape {
          dim {
            size: 1
          }
          dim {
            size: 35
          }
          dim {
            size: 35
          }
          dim {
            size: 32
          }
        }
      }
    }
  }
}
node {
  name: "mixed/join/concat_dim"
  op: "Const"
  attr {
    key: "_output_shapes"
    value {
      list {
        shape {
        }
      }
    }
  }
  attr {
    key: "dtype"
    value {
      type: DT_INT32
    }
  }
  attr {
    key: "value"
    value {
      tensor {
        dtype: DT_INT32
        tensor_shape {
        }
        int_val: 3
      }
    }
  }
}
node {
  name: "mixed/join"
  op: "Concat"
  input: "mixed/join/concat_dim"
  input: "mixed/conv"
  input: "mixed/tower/conv_1"
  input: "mixed/tower_1/conv_2"
  input: "mixed/tower_2/conv"
  attr {
    key: "N"
    value {
      i: 4
    }
  }
  attr {
    key: "T"
    value {
      type: DT_FLOAT
    }
  }
  attr {
    key: "_output_shapes"
    value {
      list {
        shape {
          dim {
            size: 1
          }
          dim {
            size: 35
          }
          dim {
            size: 35
          }
          dim {
            size: 256
          }
        }
      }
    }
  }
}
node {
  name: "mixed_1/conv/conv2d_params"
  op: "Const"
  attr {
    key: "_output_shapes"
    value {
      list {
        shape {
          dim {
            size: 1
          }
          dim {
            size: 1
          }
          dim {
            size: 256
          }
          dim {
            size: 64
          }
        }
      }
    }
  }
  attr {
    key: "dtype"
    value {
      type: DT_FLOAT
    }
  }
  attr {
    key: "value"
    value {
      tensor {
        dtype: DT_FLOAT
        tensor_shape {
          dim {
            size: 1
          }
          dim {
            size: 1
          }
          dim {
            size: 256
          }
          dim {
            size: 64
          }
        }
      }
    }
  }
}
node {
  name: "mixed_1/conv/Conv2D"
  op: "Conv2D"
  input: "mixed/join"
  input: "mixed_1/conv/conv2d_params"
  attr {
    key: "T"
    value {
      type: DT_FLOAT
    }
  }
  attr {
    key: "_output_shapes"
    value {
      list {
        shape {
          dim {
            size: 1
          }
          dim {
            size: 35
          }
          dim {
            size: 35
          }
          dim {
            size: 64
          }
        }
      }
    }
  }
  attr {
    key: "data_format"
    value {
      s: "NHWC"
    }
  }
  attr {
    key: "dilations"
    value {
      list {
        i: 1
        i: 1
        i: 1
        i: 1
      }
    }
  }
  attr {
    key: "padding"
    value {
      s: "SAME"
    }
  }
  attr {
    key: "strides"
    value {
      list {
        i: 1
        i: 1
        i: 1
        i: 1
      }
    }
  }
  attr {
    key: "use_cudnn_on_gpu"
    value {
      b: true
    }
  }
}
node {
  name: "mixed_1/conv/batchnorm/beta"
  op: "Const"
  attr {
    key: "_output_shapes"
    value {
      list {
        shape {
          dim {
            size: 64
          }
        }
      }
    }
  }
  attr {
    key: "dtype"
    value {
      type: DT_FLOAT
    }
  }
  attr {
    key: "value"
    value {
      tensor {
        dtype: DT_FLOAT
        tensor_shape {
          dim {
            size: 64
          }
        }
      }
    }
  }
}
node {
  name: "mixed_1/conv/batchnorm/gamma"
  op: "Const"
  attr {
    key: "_output_shapes"
    value {
      list {
        shape {
          dim {
            size: 64
          }
        }
      }
    }
  }
  attr {
    key: "dtype"
    value {
      type: DT_FLOAT
    }
  }
  attr {
    key: "value"
    value {
      tensor {
        dtype: DT_FLOAT
        tensor_shape {
          dim {
            size: 64
          }
        }
      }
    }
  }
}
node {
  name: "mixed_1/conv/batchnorm/moving_mean"
  op: "Const"
  attr {
    key: "_output_shapes"
    value {
      list {
        shape {
          dim {
            size: 64
          }
        }
      }
    }
  }
  attr {
    key: "dtype"
    value {
      type: DT_FLOAT
    }
  }
  attr {
    key: "value"
    value {
      tensor {
        dtype: DT_FLOAT
        tensor_shape {
          dim {
            size: 64
          }
        }
      }
    }
  }
}
node {
  name: "mixed_1/conv/batchnorm/moving_variance"
  op: "Const"
  attr {
    key: "_output_shapes"
    value {
      list {
        shape {
          dim {
            size: 64
          }
        }
      }
    }
  }
  attr {
    key: "dtype"
    value {
      type: DT_FLOAT
    }
  }
  attr {
    key: "value"
    value {
      tensor {
        dtype: DT_FLOAT
        tensor_shape {
          dim {
            size: 64
          }
        }
      }
    }
  }
}
node {
  name: "mixed_1/conv/batchnorm"
  op: "BatchNormWithGlobalNormalization"
  input: "mixed_1/conv/Conv2D"
  input: "mixed_1/conv/batchnorm/moving_mean"
  input: "mixed_1/conv/batchnorm/moving_variance"
  input: "mixed_1/conv/batchnorm/beta"
  input: "mixed_1/conv/batchnorm/gamma"
  attr {
    key: "T"
    value {
      type: DT_FLOAT
    }
  }
  attr {
    key: "_output_shapes"
    value {
      list {
        shape {
          dim {
            size: 1
          }
          dim {
            size: 35
          }
          dim {
            size: 35
          }
          dim {
            size: 64
          }
        }
      }
    }
  }
  attr {
    key: "scale_after_normalization"
    value {
      b: false
    }
  }
  attr {
    key: "variance_epsilon"
    value {
      f: 0.0010000000475
    }
  }
}
node {
  name: "mixed_1/conv/CheckNumerics"
  op: "CheckNumerics"
  input: "mixed_1/conv/batchnorm"
  attr {
    key: "T"
    value {
      type: DT_FLOAT
    }
  }
  attr {
    key: "_output_shapes"
    value {
      list {
        shape {
          dim {
            size: 1
          }
          dim {
            size: 35
          }
          dim {
            size: 35
          }
          dim {
            size: 64
          }
        }
      }
    }
  }
  attr {
    key: "message"
    value {
      s: "activation input is not finite."
    }
  }
}
node {
  name: "mixed_1/conv/control_dependency"
  op: "Identity"
  input: "mixed_1/conv/batchnorm"
  input: "^mixed_1/conv/CheckNumerics"
  attr {
    key: "T"
    value {
      type: DT_FLOAT
    }
  }
  attr {
    key: "_output_shapes"
    value {
      list {
        shape {
          dim {
            size: 1
          }
          dim {
            size: 35
          }
          dim {
            size: 35
          }
          dim {
            size: 64
          }
        }
      }
    }
  }
}
node {
  name: "mixed_1/conv"
  op: "Relu"
  input: "mixed_1/conv/control_dependency"
  attr {
    key: "T"
    value {
      type: DT_FLOAT
    }
  }
  attr {
    key: "_output_shapes"
    value {
      list {
        shape {
          dim {
            size: 1
          }
          dim {
            size: 35
          }
          dim {
            size: 35
          }
          dim {
            size: 64
          }
        }
      }
    }
  }
}
node {
  name: "mixed_1/tower/conv/conv2d_params"
  op: "Const"
  attr {
    key: "_output_shapes"
    value {
      list {
        shape {
          dim {
            size: 1
          }
          dim {
            size: 1
          }
          dim {
            size: 256
          }
          dim {
            size: 48
          }
        }
      }
    }
  }
  attr {
    key: "dtype"
    value {
      type: DT_FLOAT
    }
  }
  attr {
    key: "value"
    value {
      tensor {
        dtype: DT_FLOAT
        tensor_shape {
          dim {
            size: 1
          }
          dim {
            size: 1
          }
          dim {
            size: 256
          }
          dim {
            size: 48
          }
        }
      }
    }
  }
}
node {
  name: "mixed_1/tower/conv/Conv2D"
  op: "Conv2D"
  input: "mixed/join"
  input: "mixed_1/tower/conv/conv2d_params"
  attr {
    key: "T"
    value {
      type: DT_FLOAT
    }
  }
  attr {
    key: "_output_shapes"
    value {
      list {
        shape {
          dim {
            size: 1
          }
          dim {
            size: 35
          }
          dim {
            size: 35
          }
          dim {
            size: 48
          }
        }
      }
    }
  }
  attr {
    key: "data_format"
    value {
      s: "NHWC"
    }
  }
  attr {
    key: "dilations"
    value {
      list {
        i: 1
        i: 1
        i: 1
        i: 1
      }
    }
  }
  attr {
    key: "padding"
    value {
      s: "SAME"
    }
  }
  attr {
    key: "strides"
    value {
      list {
        i: 1
        i: 1
        i: 1
        i: 1
      }
    }
  }
  attr {
    key: "use_cudnn_on_gpu"
    value {
      b: true
    }
  }
}
node {
  name: "mixed_1/tower/conv/batchnorm/beta"
  op: "Const"
  attr {
    key: "_output_shapes"
    value {
      list {
        shape {
          dim {
            size: 48
          }
        }
      }
    }
  }
  attr {
    key: "dtype"
    value {
      type: DT_FLOAT
    }
  }
  attr {
    key: "value"
    value {
      tensor {
        dtype: DT_FLOAT
        tensor_shape {
          dim {
            size: 48
          }
        }
      }
    }
  }
}
node {
  name: "mixed_1/tower/conv/batchnorm/gamma"
  op: "Const"
  attr {
    key: "_output_shapes"
    value {
      list {
        shape {
          dim {
            size: 48
          }
        }
      }
    }
  }
  attr {
    key: "dtype"
    value {
      type: DT_FLOAT
    }
  }
  attr {
    key: "value"
    value {
      tensor {
        dtype: DT_FLOAT
        tensor_shape {
          dim {
            size: 48
          }
        }
      }
    }
  }
}
node {
  name: "mixed_1/tower/conv/batchnorm/moving_mean"
  op: "Const"
  attr {
    key: "_output_shapes"
    value {
      list {
        shape {
          dim {
            size: 48
          }
        }
      }
    }
  }
  attr {
    key: "dtype"
    value {
      type: DT_FLOAT
    }
  }
  attr {
    key: "value"
    value {
      tensor {
        dtype: DT_FLOAT
        tensor_shape {
          dim {
            size: 48
          }
        }
      }
    }
  }
}
node {
  name: "mixed_1/tower/conv/batchnorm/moving_variance"
  op: "Const"
  attr {
    key: "_output_shapes"
    value {
      list {
        shape {
          dim {
            size: 48
          }
        }
      }
    }
  }
  attr {
    key: "dtype"
    value {
      type: DT_FLOAT
    }
  }
  attr {
    key: "value"
    value {
      tensor {
        dtype: DT_FLOAT
        tensor_shape {
          dim {
            size: 48
          }
        }
      }
    }
  }
}
node {
  name: "mixed_1/tower/conv/batchnorm"
  op: "BatchNormWithGlobalNormalization"
  input: "mixed_1/tower/conv/Conv2D"
  input: "mixed_1/tower/conv/batchnorm/moving_mean"
  input: "mixed_1/tower/conv/batchnorm/moving_variance"
  input: "mixed_1/tower/conv/batchnorm/beta"
  input: "mixed_1/tower/conv/batchnorm/gamma"
  attr {
    key: "T"
    value {
      type: DT_FLOAT
    }
  }
  attr {
    key: "_output_shapes"
    value {
      list {
        shape {
          dim {
            size: 1
          }
          dim {
            size: 35
          }
          dim {
            size: 35
          }
          dim {
            size: 48
          }
        }
      }
    }
  }
  attr {
    key: "scale_after_normalization"
    value {
      b: false
    }
  }
  attr {
    key: "variance_epsilon"
    value {
      f: 0.0010000000475
    }
  }
}
node {
  name: "mixed_1/tower/conv/CheckNumerics"
  op: "CheckNumerics"
  input: "mixed_1/tower/conv/batchnorm"
  attr {
    key: "T"
    value {
      type: DT_FLOAT
    }
  }
  attr {
    key: "_output_shapes"
    value {
      list {
        shape {
          dim {
            size: 1
          }
          dim {
            size: 35
          }
          dim {
            size: 35
          }
          dim {
            size: 48
          }
        }
      }
    }
  }
  attr {
    key: "message"
    value {
      s: "activation input is not finite."
    }
  }
}
node {
  name: "mixed_1/tower/conv/control_dependency"
  op: "Identity"
  input: "mixed_1/tower/conv/batchnorm"
  input: "^mixed_1/tower/conv/CheckNumerics"
  attr {
    key: "T"
    value {
      type: DT_FLOAT
    }
  }
  attr {
    key: "_output_shapes"
    value {
      list {
        shape {
          dim {
            size: 1
          }
          dim {
            size: 35
          }
          dim {
            size: 35
          }
          dim {
            size: 48
          }
        }
      }
    }
  }
}
node {
  name: "mixed_1/tower/conv"
  op: "Relu"
  input: "mixed_1/tower/conv/control_dependency"
  attr {
    key: "T"
    value {
      type: DT_FLOAT
    }
  }
  attr {
    key: "_output_shapes"
    value {
      list {
        shape {
          dim {
            size: 1
          }
          dim {
            size: 35
          }
          dim {
            size: 35
          }
          dim {
            size: 48
          }
        }
      }
    }
  }
}
node {
  name: "mixed_1/tower/conv_1/conv2d_params"
  op: "Const"
  attr {
    key: "_output_shapes"
    value {
      list {
        shape {
          dim {
            size: 5
          }
          dim {
            size: 5
          }
          dim {
            size: 48
          }
          dim {
            size: 64
          }
        }
      }
    }
  }
  attr {
    key: "dtype"
    value {
      type: DT_FLOAT
    }
  }
  attr {
    key: "value"
    value {
      tensor {
        dtype: DT_FLOAT
        tensor_shape {
          dim {
            size: 5
          }
          dim {
            size: 5
          }
          dim {
            size: 48
          }
          dim {
            size: 64
          }
        }
      }
    }
  }
}
node {
  name: "mixed_1/tower/conv_1/Conv2D"
  op: "Conv2D"
  input: "mixed_1/tower/conv"
  input: "mixed_1/tower/conv_1/conv2d_params"
  attr {
    key: "T"
    value {
      type: DT_FLOAT
    }
  }
  attr {
    key: "_output_shapes"
    value {
      list {
        shape {
          dim {
            size: 1
          }
          dim {
            size: 35
          }
          dim {
            size: 35
          }
          dim {
            size: 64
          }
        }
      }
    }
  }
  attr {
    key: "data_format"
    value {
      s: "NHWC"
    }
  }
  attr {
    key: "dilations"
    value {
      list {
        i: 1
        i: 1
        i: 1
        i: 1
      }
    }
  }
  attr {
    key: "padding"
    value {
      s: "SAME"
    }
  }
  attr {
    key: "strides"
    value {
      list {
        i: 1
        i: 1
        i: 1
        i: 1
      }
    }
  }
  attr {
    key: "use_cudnn_on_gpu"
    value {
      b: true
    }
  }
}
node {
  name: "mixed_1/tower/conv_1/batchnorm/beta"
  op: "Const"
  attr {
    key: "_output_shapes"
    value {
      list {
        shape {
          dim {
            size: 64
          }
        }
      }
    }
  }
  attr {
    key: "dtype"
    value {
      type: DT_FLOAT
    }
  }
  attr {
    key: "value"
    value {
      tensor {
        dtype: DT_FLOAT
        tensor_shape {
          dim {
            size: 64
          }
        }
      }
    }
  }
}
node {
  name: "mixed_1/tower/conv_1/batchnorm/gamma"
  op: "Const"
  attr {
    key: "_output_shapes"
    value {
      list {
        shape {
          dim {
            size: 64
          }
        }
      }
    }
  }
  attr {
    key: "dtype"
    value {
      type: DT_FLOAT
    }
  }
  attr {
    key: "value"
    value {
      tensor {
        dtype: DT_FLOAT
        tensor_shape {
          dim {
            size: 64
          }
        }
      }
    }
  }
}
node {
  name: "mixed_1/tower/conv_1/batchnorm/moving_mean"
  op: "Const"
  attr {
    key: "_output_shapes"
    value {
      list {
        shape {
          dim {
            size: 64
          }
        }
      }
    }
  }
  attr {
    key: "dtype"
    value {
      type: DT_FLOAT
    }
  }
  attr {
    key: "value"
    value {
      tensor {
        dtype: DT_FLOAT
        tensor_shape {
          dim {
            size: 64
          }
        }
      }
    }
  }
}
node {
  name: "mixed_1/tower/conv_1/batchnorm/moving_variance"
  op: "Const"
  attr {
    key: "_output_shapes"
    value {
      list {
        shape {
          dim {
            size: 64
          }
        }
      }
    }
  }
  attr {
    key: "dtype"
    value {
      type: DT_FLOAT
    }
  }
  attr {
    key: "value"
    value {
      tensor {
        dtype: DT_FLOAT
        tensor_shape {
          dim {
            size: 64
          }
        }
      }
    }
  }
}
node {
  name: "mixed_1/tower/conv_1/batchnorm"
  op: "BatchNormWithGlobalNormalization"
  input: "mixed_1/tower/conv_1/Conv2D"
  input: "mixed_1/tower/conv_1/batchnorm/moving_mean"
  input: "mixed_1/tower/conv_1/batchnorm/moving_variance"
  input: "mixed_1/tower/conv_1/batchnorm/beta"
  input: "mixed_1/tower/conv_1/batchnorm/gamma"
  attr {
    key: "T"
    value {
      type: DT_FLOAT
    }
  }
  attr {
    key: "_output_shapes"
    value {
      list {
        shape {
          dim {
            size: 1
          }
          dim {
            size: 35
          }
          dim {
            size: 35
          }
          dim {
            size: 64
          }
        }
      }
    }
  }
  attr {
    key: "scale_after_normalization"
    value {
      b: false
    }
  }
  attr {
    key: "variance_epsilon"
    value {
      f: 0.0010000000475
    }
  }
}
node {
  name: "mixed_1/tower/conv_1/CheckNumerics"
  op: "CheckNumerics"
  input: "mixed_1/tower/conv_1/batchnorm"
  attr {
    key: "T"
    value {
      type: DT_FLOAT
    }
  }
  attr {
    key: "_output_shapes"
    value {
      list {
        shape {
          dim {
            size: 1
          }
          dim {
            size: 35
          }
          dim {
            size: 35
          }
          dim {
            size: 64
          }
        }
      }
    }
  }
  attr {
    key: "message"
    value {
      s: "activation input is not finite."
    }
  }
}
node {
  name: "mixed_1/tower/conv_1/control_dependency"
  op: "Identity"
  input: "mixed_1/tower/conv_1/batchnorm"
  input: "^mixed_1/tower/conv_1/CheckNumerics"
  attr {
    key: "T"
    value {
      type: DT_FLOAT
    }
  }
  attr {
    key: "_output_shapes"
    value {
      list {
        shape {
          dim {
            size: 1
          }
          dim {
            size: 35
          }
          dim {
            size: 35
          }
          dim {
            size: 64
          }
        }
      }
    }
  }
}
node {
  name: "mixed_1/tower/conv_1"
  op: "Relu"
  input: "mixed_1/tower/conv_1/control_dependency"
  attr {
    key: "T"
    value {
      type: DT_FLOAT
    }
  }
  attr {
    key: "_output_shapes"
    value {
      list {
        shape {
          dim {
            size: 1
          }
          dim {
            size: 35
          }
          dim {
            size: 35
          }
          dim {
            size: 64
          }
        }
      }
    }
  }
}
node {
  name: "mixed_1/tower_1/conv/conv2d_params"
  op: "Const"
  attr {
    key: "_output_shapes"
    value {
      list {
        shape {
          dim {
            size: 1
          }
          dim {
            size: 1
          }
          dim {
            size: 256
          }
          dim {
            size: 64
          }
        }
      }
    }
  }
  attr {
    key: "dtype"
    value {
      type: DT_FLOAT
    }
  }
  attr {
    key: "value"
    value {
      tensor {
        dtype: DT_FLOAT
        tensor_shape {
          dim {
            size: 1
          }
          dim {
            size: 1
          }
          dim {
            size: 256
          }
          dim {
            size: 64
          }
        }
      }
    }
  }
}
node {
  name: "mixed_1/tower_1/conv/Conv2D"
  op: "Conv2D"
  input: "mixed/join"
  input: "mixed_1/tower_1/conv/conv2d_params"
  attr {
    key: "T"
    value {
      type: DT_FLOAT
    }
  }
  attr {
    key: "_output_shapes"
    value {
      list {
        shape {
          dim {
            size: 1
          }
          dim {
            size: 35
          }
          dim {
            size: 35
          }
          dim {
            size: 64
          }
        }
      }
    }
  }
  attr {
    key: "data_format"
    value {
      s: "NHWC"
    }
  }
  attr {
    key: "dilations"
    value {
      list {
        i: 1
        i: 1
        i: 1
        i: 1
      }
    }
  }
  attr {
    key: "padding"
    value {
      s: "SAME"
    }
  }
  attr {
    key: "strides"
    value {
      list {
        i: 1
        i: 1
        i: 1
        i: 1
      }
    }
  }
  attr {
    key: "use_cudnn_on_gpu"
    value {
      b: true
    }
  }
}
node {
  name: "mixed_1/tower_1/conv/batchnorm/beta"
  op: "Const"
  attr {
    key: "_output_shapes"
    value {
      list {
        shape {
          dim {
            size: 64
          }
        }
      }
    }
  }
  attr {
    key: "dtype"
    value {
      type: DT_FLOAT
    }
  }
  attr {
    key: "value"
    value {
      tensor {
        dtype: DT_FLOAT
        tensor_shape {
          dim {
            size: 64
          }
        }
      }
    }
  }
}
node {
  name: "mixed_1/tower_1/conv/batchnorm/gamma"
  op: "Const"
  attr {
    key: "_output_shapes"
    value {
      list {
        shape {
          dim {
            size: 64
          }
        }
      }
    }
  }
  attr {
    key: "dtype"
    value {
      type: DT_FLOAT
    }
  }
  attr {
    key: "value"
    value {
      tensor {
        dtype: DT_FLOAT
        tensor_shape {
          dim {
            size: 64
          }
        }
      }
    }
  }
}
node {
  name: "mixed_1/tower_1/conv/batchnorm/moving_mean"
  op: "Const"
  attr {
    key: "_output_shapes"
    value {
      list {
        shape {
          dim {
            size: 64
          }
        }
      }
    }
  }
  attr {
    key: "dtype"
    value {
      type: DT_FLOAT
    }
  }
  attr {
    key: "value"
    value {
      tensor {
        dtype: DT_FLOAT
        tensor_shape {
          dim {
            size: 64
          }
        }
      }
    }
  }
}
node {
  name: "mixed_1/tower_1/conv/batchnorm/moving_variance"
  op: "Const"
  attr {
    key: "_output_shapes"
    value {
      list {
        shape {
          dim {
            size: 64
          }
        }
      }
    }
  }
  attr {
    key: "dtype"
    value {
      type: DT_FLOAT
    }
  }
  attr {
    key: "value"
    value {
      tensor {
        dtype: DT_FLOAT
        tensor_shape {
          dim {
            size: 64
          }
        }
      }
    }
  }
}
node {
  name: "mixed_1/tower_1/conv/batchnorm"
  op: "BatchNormWithGlobalNormalization"
  input: "mixed_1/tower_1/conv/Conv2D"
  input: "mixed_1/tower_1/conv/batchnorm/moving_mean"
  input: "mixed_1/tower_1/conv/batchnorm/moving_variance"
  input: "mixed_1/tower_1/conv/batchnorm/beta"
  input: "mixed_1/tower_1/conv/batchnorm/gamma"
  attr {
    key: "T"
    value {
      type: DT_FLOAT
    }
  }
  attr {
    key: "_output_shapes"
    value {
      list {
        shape {
          dim {
            size: 1
          }
          dim {
            size: 35
          }
          dim {
            size: 35
          }
          dim {
            size: 64
          }
        }
      }
    }
  }
  attr {
    key: "scale_after_normalization"
    value {
      b: false
    }
  }
  attr {
    key: "variance_epsilon"
    value {
      f: 0.0010000000475
    }
  }
}
node {
  name: "mixed_1/tower_1/conv/CheckNumerics"
  op: "CheckNumerics"
  input: "mixed_1/tower_1/conv/batchnorm"
  attr {
    key: "T"
    value {
      type: DT_FLOAT
    }
  }
  attr {
    key: "_output_shapes"
    value {
      list {
        shape {
          dim {
            size: 1
          }
          dim {
            size: 35
          }
          dim {
            size: 35
          }
          dim {
            size: 64
          }
        }
      }
    }
  }
  attr {
    key: "message"
    value {
      s: "activation input is not finite."
    }
  }
}
node {
  name: "mixed_1/tower_1/conv/control_dependency"
  op: "Identity"
  input: "mixed_1/tower_1/conv/batchnorm"
  input: "^mixed_1/tower_1/conv/CheckNumerics"
  attr {
    key: "T"
    value {
      type: DT_FLOAT
    }
  }
  attr {
    key: "_output_shapes"
    value {
      list {
        shape {
          dim {
            size: 1
          }
          dim {
            size: 35
          }
          dim {
            size: 35
          }
          dim {
            size: 64
          }
        }
      }
    }
  }
}
node {
  name: "mixed_1/tower_1/conv"
  op: "Relu"
  input: "mixed_1/tower_1/conv/control_dependency"
  attr {
    key: "T"
    value {
      type: DT_FLOAT
    }
  }
  attr {
    key: "_output_shapes"
    value {
      list {
        shape {
          dim {
            size: 1
          }
          dim {
            size: 35
          }
          dim {
            size: 35
          }
          dim {
            size: 64
          }
        }
      }
    }
  }
}
node {
  name: "mixed_1/tower_1/conv_1/conv2d_params"
  op: "Const"
  attr {
    key: "_output_shapes"
    value {
      list {
        shape {
          dim {
            size: 3
          }
          dim {
            size: 3
          }
          dim {
            size: 64
          }
          dim {
            size: 96
          }
        }
      }
    }
  }
  attr {
    key: "dtype"
    value {
      type: DT_FLOAT
    }
  }
  attr {
    key: "value"
    value {
      tensor {
        dtype: DT_FLOAT
        tensor_shape {
          dim {
            size: 3
          }
          dim {
            size: 3
          }
          dim {
            size: 64
          }
          dim {
            size: 96
          }
        }
      }
    }
  }
}
node {
  name: "mixed_1/tower_1/conv_1/Conv2D"
  op: "Conv2D"
  input: "mixed_1/tower_1/conv"
  input: "mixed_1/tower_1/conv_1/conv2d_params"
  attr {
    key: "T"
    value {
      type: DT_FLOAT
    }
  }
  attr {
    key: "_output_shapes"
    value {
      list {
        shape {
          dim {
            size: 1
          }
          dim {
            size: 35
          }
          dim {
            size: 35
          }
          dim {
            size: 96
          }
        }
      }
    }
  }
  attr {
    key: "data_format"
    value {
      s: "NHWC"
    }
  }
  attr {
    key: "dilations"
    value {
      list {
        i: 1
        i: 1
        i: 1
        i: 1
      }
    }
  }
  attr {
    key: "padding"
    value {
      s: "SAME"
    }
  }
  attr {
    key: "strides"
    value {
      list {
        i: 1
        i: 1
        i: 1
        i: 1
      }
    }
  }
  attr {
    key: "use_cudnn_on_gpu"
    value {
      b: true
    }
  }
}
node {
  name: "mixed_1/tower_1/conv_1/batchnorm/beta"
  op: "Const"
  attr {
    key: "_output_shapes"
    value {
      list {
        shape {
          dim {
            size: 96
          }
        }
      }
    }
  }
  attr {
    key: "dtype"
    value {
      type: DT_FLOAT
    }
  }
  attr {
    key: "value"
    value {
      tensor {
        dtype: DT_FLOAT
        tensor_shape {
          dim {
            size: 96
          }
        }
      }
    }
  }
}
node {
  name: "mixed_1/tower_1/conv_1/batchnorm/gamma"
  op: "Const"
  attr {
    key: "_output_shapes"
    value {
      list {
        shape {
          dim {
            size: 96
          }
        }
      }
    }
  }
  attr {
    key: "dtype"
    value {
      type: DT_FLOAT
    }
  }
  attr {
    key: "value"
    value {
      tensor {
        dtype: DT_FLOAT
        tensor_shape {
          dim {
            size: 96
          }
        }
      }
    }
  }
}
node {
  name: "mixed_1/tower_1/conv_1/batchnorm/moving_mean"
  op: "Const"
  attr {
    key: "_output_shapes"
    value {
      list {
        shape {
          dim {
            size: 96
          }
        }
      }
    }
  }
  attr {
    key: "dtype"
    value {
      type: DT_FLOAT
    }
  }
  attr {
    key: "value"
    value {
      tensor {
        dtype: DT_FLOAT
        tensor_shape {
          dim {
            size: 96
          }
        }
      }
    }
  }
}
node {
  name: "mixed_1/tower_1/conv_1/batchnorm/moving_variance"
  op: "Const"
  attr {
    key: "_output_shapes"
    value {
      list {
        shape {
          dim {
            size: 96
          }
        }
      }
    }
  }
  attr {
    key: "dtype"
    value {
      type: DT_FLOAT
    }
  }
  attr {
    key: "value"
    value {
      tensor {
        dtype: DT_FLOAT
        tensor_shape {
          dim {
            size: 96
          }
        }
      }
    }
  }
}
node {
  name: "mixed_1/tower_1/conv_1/batchnorm"
  op: "BatchNormWithGlobalNormalization"
  input: "mixed_1/tower_1/conv_1/Conv2D"
  input: "mixed_1/tower_1/conv_1/batchnorm/moving_mean"
  input: "mixed_1/tower_1/conv_1/batchnorm/moving_variance"
  input: "mixed_1/tower_1/conv_1/batchnorm/beta"
  input: "mixed_1/tower_1/conv_1/batchnorm/gamma"
  attr {
    key: "T"
    value {
      type: DT_FLOAT
    }
  }
  attr {
    key: "_output_shapes"
    value {
      list {
        shape {
          dim {
            size: 1
          }
          dim {
            size: 35
          }
          dim {
            size: 35
          }
          dim {
            size: 96
          }
        }
      }
    }
  }
  attr {
    key: "scale_after_normalization"
    value {
      b: false
    }
  }
  attr {
    key: "variance_epsilon"
    value {
      f: 0.0010000000475
    }
  }
}
node {
  name: "mixed_1/tower_1/conv_1/CheckNumerics"
  op: "CheckNumerics"
  input: "mixed_1/tower_1/conv_1/batchnorm"
  attr {
    key: "T"
    value {
      type: DT_FLOAT
    }
  }
  attr {
    key: "_output_shapes"
    value {
      list {
        shape {
          dim {
            size: 1
          }
          dim {
            size: 35
          }
          dim {
            size: 35
          }
          dim {
            size: 96
          }
        }
      }
    }
  }
  attr {
    key: "message"
    value {
      s: "activation input is not finite."
    }
  }
}
node {
  name: "mixed_1/tower_1/conv_1/control_dependency"
  op: "Identity"
  input: "mixed_1/tower_1/conv_1/batchnorm"
  input: "^mixed_1/tower_1/conv_1/CheckNumerics"
  attr {
    key: "T"
    value {
      type: DT_FLOAT
    }
  }
  attr {
    key: "_output_shapes"
    value {
      list {
        shape {
          dim {
            size: 1
          }
          dim {
            size: 35
          }
          dim {
            size: 35
          }
          dim {
            size: 96
          }
        }
      }
    }
  }
}
node {
  name: "mixed_1/tower_1/conv_1"
  op: "Relu"
  input: "mixed_1/tower_1/conv_1/control_dependency"
  attr {
    key: "T"
    value {
      type: DT_FLOAT
    }
  }
  attr {
    key: "_output_shapes"
    value {
      list {
        shape {
          dim {
            size: 1
          }
          dim {
            size: 35
          }
          dim {
            size: 35
          }
          dim {
            size: 96
          }
        }
      }
    }
  }
}
node {
  name: "mixed_1/tower_1/conv_2/conv2d_params"
  op: "Const"
  attr {
    key: "_output_shapes"
    value {
      list {
        shape {
          dim {
            size: 3
          }
          dim {
            size: 3
          }
          dim {
            size: 96
          }
          dim {
            size: 96
          }
        }
      }
    }
  }
  attr {
    key: "dtype"
    value {
      type: DT_FLOAT
    }
  }
  attr {
    key: "value"
    value {
      tensor {
        dtype: DT_FLOAT
        tensor_shape {
          dim {
            size: 3
          }
          dim {
            size: 3
          }
          dim {
            size: 96
          }
          dim {
            size: 96
          }
        }
      }
    }
  }
}
node {
  name: "mixed_1/tower_1/conv_2/Conv2D"
  op: "Conv2D"
  input: "mixed_1/tower_1/conv_1"
  input: "mixed_1/tower_1/conv_2/conv2d_params"
  attr {
    key: "T"
    value {
      type: DT_FLOAT
    }
  }
  attr {
    key: "_output_shapes"
    value {
      list {
        shape {
          dim {
            size: 1
          }
          dim {
            size: 35
          }
          dim {
            size: 35
          }
          dim {
            size: 96
          }
        }
      }
    }
  }
  attr {
    key: "data_format"
    value {
      s: "NHWC"
    }
  }
  attr {
    key: "dilations"
    value {
      list {
        i: 1
        i: 1
        i: 1
        i: 1
      }
    }
  }
  attr {
    key: "padding"
    value {
      s: "SAME"
    }
  }
  attr {
    key: "strides"
    value {
      list {
        i: 1
        i: 1
        i: 1
        i: 1
      }
    }
  }
  attr {
    key: "use_cudnn_on_gpu"
    value {
      b: true
    }
  }
}
node {
  name: "mixed_1/tower_1/conv_2/batchnorm/beta"
  op: "Const"
  attr {
    key: "_output_shapes"
    value {
      list {
        shape {
          dim {
            size: 96
          }
        }
      }
    }
  }
  attr {
    key: "dtype"
    value {
      type: DT_FLOAT
    }
  }
  attr {
    key: "value"
    value {
      tensor {
        dtype: DT_FLOAT
        tensor_shape {
          dim {
            size: 96
          }
        }
      }
    }
  }
}
node {
  name: "mixed_1/tower_1/conv_2/batchnorm/gamma"
  op: "Const"
  attr {
    key: "_output_shapes"
    value {
      list {
        shape {
          dim {
            size: 96
          }
        }
      }
    }
  }
  attr {
    key: "dtype"
    value {
      type: DT_FLOAT
    }
  }
  attr {
    key: "value"
    value {
      tensor {
        dtype: DT_FLOAT
        tensor_shape {
          dim {
            size: 96
          }
        }
      }
    }
  }
}
node {
  name: "mixed_1/tower_1/conv_2/batchnorm/moving_mean"
  op: "Const"
  attr {
    key: "_output_shapes"
    value {
      list {
        shape {
          dim {
            size: 96
          }
        }
      }
    }
  }
  attr {
    key: "dtype"
    value {
      type: DT_FLOAT
    }
  }
  attr {
    key: "value"
    value {
      tensor {
        dtype: DT_FLOAT
        tensor_shape {
          dim {
            size: 96
          }
        }
      }
    }
  }
}
node {
  name: "mixed_1/tower_1/conv_2/batchnorm/moving_variance"
  op: "Const"
  attr {
    key: "_output_shapes"
    value {
      list {
        shape {
          dim {
            size: 96
          }
        }
      }
    }
  }
  attr {
    key: "dtype"
    value {
      type: DT_FLOAT
    }
  }
  attr {
    key: "value"
    value {
      tensor {
        dtype: DT_FLOAT
        tensor_shape {
          dim {
            size: 96
          }
        }
      }
    }
  }
}
node {
  name: "mixed_1/tower_1/conv_2/batchnorm"
  op: "BatchNormWithGlobalNormalization"
  input: "mixed_1/tower_1/conv_2/Conv2D"
  input: "mixed_1/tower_1/conv_2/batchnorm/moving_mean"
  input: "mixed_1/tower_1/conv_2/batchnorm/moving_variance"
  input: "mixed_1/tower_1/conv_2/batchnorm/beta"
  input: "mixed_1/tower_1/conv_2/batchnorm/gamma"
  attr {
    key: "T"
    value {
      type: DT_FLOAT
    }
  }
  attr {
    key: "_output_shapes"
    value {
      list {
        shape {
          dim {
            size: 1
          }
          dim {
            size: 35
          }
          dim {
            size: 35
          }
          dim {
            size: 96
          }
        }
      }
    }
  }
  attr {
    key: "scale_after_normalization"
    value {
      b: false
    }
  }
  attr {
    key: "variance_epsilon"
    value {
      f: 0.0010000000475
    }
  }
}
node {
  name: "mixed_1/tower_1/conv_2/CheckNumerics"
  op: "CheckNumerics"
  input: "mixed_1/tower_1/conv_2/batchnorm"
  attr {
    key: "T"
    value {
      type: DT_FLOAT
    }
  }
  attr {
    key: "_output_shapes"
    value {
      list {
        shape {
          dim {
            size: 1
          }
          dim {
            size: 35
          }
          dim {
            size: 35
          }
          dim {
            size: 96
          }
        }
      }
    }
  }
  attr {
    key: "message"
    value {
      s: "activation input is not finite."
    }
  }
}
node {
  name: "mixed_1/tower_1/conv_2/control_dependency"
  op: "Identity"
  input: "mixed_1/tower_1/conv_2/batchnorm"
  input: "^mixed_1/tower_1/conv_2/CheckNumerics"
  attr {
    key: "T"
    value {
      type: DT_FLOAT
    }
  }
  attr {
    key: "_output_shapes"
    value {
      list {
        shape {
          dim {
            size: 1
          }
          dim {
            size: 35
          }
          dim {
            size: 35
          }
          dim {
            size: 96
          }
        }
      }
    }
  }
}
node {
  name: "mixed_1/tower_1/conv_2"
  op: "Relu"
  input: "mixed_1/tower_1/conv_2/control_dependency"
  attr {
    key: "T"
    value {
      type: DT_FLOAT
    }
  }
  attr {
    key: "_output_shapes"
    value {
      list {
        shape {
          dim {
            size: 1
          }
          dim {
            size: 35
          }
          dim {
            size: 35
          }
          dim {
            size: 96
          }
        }
      }
    }
  }
}
node {
  name: "mixed_1/tower_2/pool"
  op: "AvgPool"
  input: "mixed/join"
  attr {
    key: "T"
    value {
      type: DT_FLOAT
    }
  }
  attr {
    key: "_output_shapes"
    value {
      list {
        shape {
          dim {
            size: 1
          }
          dim {
            size: 35
          }
          dim {
            size: 35
          }
          dim {
            size: 256
          }
        }
      }
    }
  }
  attr {
    key: "data_format"
    value {
      s: "NHWC"
    }
  }
  attr {
    key: "ksize"
    value {
      list {
        i: 1
        i: 3
        i: 3
        i: 1
      }
    }
  }
  attr {
    key: "padding"
    value {
      s: "SAME"
    }
  }
  attr {
    key: "strides"
    value {
      list {
        i: 1
        i: 1
        i: 1
        i: 1
      }
    }
  }
}
node {
  name: "mixed_1/tower_2/conv/conv2d_params"
  op: "Const"
  attr {
    key: "_output_shapes"
    value {
      list {
        shape {
          dim {
            size: 1
          }
          dim {
            size: 1
          }
          dim {
            size: 256
          }
          dim {
            size: 64
          }
        }
      }
    }
  }
  attr {
    key: "dtype"
    value {
      type: DT_FLOAT
    }
  }
  attr {
    key: "value"
    value {
      tensor {
        dtype: DT_FLOAT
        tensor_shape {
          dim {
            size: 1
          }
          dim {
            size: 1
          }
          dim {
            size: 256
          }
          dim {
            size: 64
          }
        }
      }
    }
  }
}
node {
  name: "mixed_1/tower_2/conv/Conv2D"
  op: "Conv2D"
  input: "mixed_1/tower_2/pool"
  input: "mixed_1/tower_2/conv/conv2d_params"
  attr {
    key: "T"
    value {
      type: DT_FLOAT
    }
  }
  attr {
    key: "_output_shapes"
    value {
      list {
        shape {
          dim {
            size: 1
          }
          dim {
            size: 35
          }
          dim {
            size: 35
          }
          dim {
            size: 64
          }
        }
      }
    }
  }
  attr {
    key: "data_format"
    value {
      s: "NHWC"
    }
  }
  attr {
    key: "dilations"
    value {
      list {
        i: 1
        i: 1
        i: 1
        i: 1
      }
    }
  }
  attr {
    key: "padding"
    value {
      s: "SAME"
    }
  }
  attr {
    key: "strides"
    value {
      list {
        i: 1
        i: 1
        i: 1
        i: 1
      }
    }
  }
  attr {
    key: "use_cudnn_on_gpu"
    value {
      b: true
    }
  }
}
node {
  name: "mixed_1/tower_2/conv/batchnorm/beta"
  op: "Const"
  attr {
    key: "_output_shapes"
    value {
      list {
        shape {
          dim {
            size: 64
          }
        }
      }
    }
  }
  attr {
    key: "dtype"
    value {
      type: DT_FLOAT
    }
  }
  attr {
    key: "value"
    value {
      tensor {
        dtype: DT_FLOAT
        tensor_shape {
          dim {
            size: 64
          }
        }
      }
    }
  }
}
node {
  name: "mixed_1/tower_2/conv/batchnorm/gamma"
  op: "Const"
  attr {
    key: "_output_shapes"
    value {
      list {
        shape {
          dim {
            size: 64
          }
        }
      }
    }
  }
  attr {
    key: "dtype"
    value {
      type: DT_FLOAT
    }
  }
  attr {
    key: "value"
    value {
      tensor {
        dtype: DT_FLOAT
        tensor_shape {
          dim {
            size: 64
          }
        }
      }
    }
  }
}
node {
  name: "mixed_1/tower_2/conv/batchnorm/moving_mean"
  op: "Const"
  attr {
    key: "_output_shapes"
    value {
      list {
        shape {
          dim {
            size: 64
          }
        }
      }
    }
  }
  attr {
    key: "dtype"
    value {
      type: DT_FLOAT
    }
  }
  attr {
    key: "value"
    value {
      tensor {
        dtype: DT_FLOAT
        tensor_shape {
          dim {
            size: 64
          }
        }
      }
    }
  }
}
node {
  name: "mixed_1/tower_2/conv/batchnorm/moving_variance"
  op: "Const"
  attr {
    key: "_output_shapes"
    value {
      list {
        shape {
          dim {
            size: 64
          }
        }
      }
    }
  }
  attr {
    key: "dtype"
    value {
      type: DT_FLOAT
    }
  }
  attr {
    key: "value"
    value {
      tensor {
        dtype: DT_FLOAT
        tensor_shape {
          dim {
            size: 64
          }
        }
      }
    }
  }
}
node {
  name: "mixed_1/tower_2/conv/batchnorm"
  op: "BatchNormWithGlobalNormalization"
  input: "mixed_1/tower_2/conv/Conv2D"
  input: "mixed_1/tower_2/conv/batchnorm/moving_mean"
  input: "mixed_1/tower_2/conv/batchnorm/moving_variance"
  input: "mixed_1/tower_2/conv/batchnorm/beta"
  input: "mixed_1/tower_2/conv/batchnorm/gamma"
  attr {
    key: "T"
    value {
      type: DT_FLOAT
    }
  }
  attr {
    key: "_output_shapes"
    value {
      list {
        shape {
          dim {
            size: 1
          }
          dim {
            size: 35
          }
          dim {
            size: 35
          }
          dim {
            size: 64
          }
        }
      }
    }
  }
  attr {
    key: "scale_after_normalization"
    value {
      b: false
    }
  }
  attr {
    key: "variance_epsilon"
    value {
      f: 0.0010000000475
    }
  }
}
node {
  name: "mixed_1/tower_2/conv/CheckNumerics"
  op: "CheckNumerics"
  input: "mixed_1/tower_2/conv/batchnorm"
  attr {
    key: "T"
    value {
      type: DT_FLOAT
    }
  }
  attr {
    key: "_output_shapes"
    value {
      list {
        shape {
          dim {
            size: 1
          }
          dim {
            size: 35
          }
          dim {
            size: 35
          }
          dim {
            size: 64
          }
        }
      }
    }
  }
  attr {
    key: "message"
    value {
      s: "activation input is not finite."
    }
  }
}
node {
  name: "mixed_1/tower_2/conv/control_dependency"
  op: "Identity"
  input: "mixed_1/tower_2/conv/batchnorm"
  input: "^mixed_1/tower_2/conv/CheckNumerics"
  attr {
    key: "T"
    value {
      type: DT_FLOAT
    }
  }
  attr {
    key: "_output_shapes"
    value {
      list {
        shape {
          dim {
            size: 1
          }
          dim {
            size: 35
          }
          dim {
            size: 35
          }
          dim {
            size: 64
          }
        }
      }
    }
  }
}
node {
  name: "mixed_1/tower_2/conv"
  op: "Relu"
  input: "mixed_1/tower_2/conv/control_dependency"
  attr {
    key: "T"
    value {
      type: DT_FLOAT
    }
  }
  attr {
    key: "_output_shapes"
    value {
      list {
        shape {
          dim {
            size: 1
          }
          dim {
            size: 35
          }
          dim {
            size: 35
          }
          dim {
            size: 64
          }
        }
      }
    }
  }
}
node {
  name: "mixed_1/join/concat_dim"
  op: "Const"
  attr {
    key: "_output_shapes"
    value {
      list {
        shape {
        }
      }
    }
  }
  attr {
    key: "dtype"
    value {
      type: DT_INT32
    }
  }
  attr {
    key: "value"
    value {
      tensor {
        dtype: DT_INT32
        tensor_shape {
        }
        int_val: 3
      }
    }
  }
}
node {
  name: "mixed_1/join"
  op: "Concat"
  input: "mixed_1/join/concat_dim"
  input: "mixed_1/conv"
  input: "mixed_1/tower/conv_1"
  input: "mixed_1/tower_1/conv_2"
  input: "mixed_1/tower_2/conv"
  attr {
    key: "N"
    value {
      i: 4
    }
  }
  attr {
    key: "T"
    value {
      type: DT_FLOAT
    }
  }
  attr {
    key: "_output_shapes"
    value {
      list {
        shape {
          dim {
            size: 1
          }
          dim {
            size: 35
          }
          dim {
            size: 35
          }
          dim {
            size: 288
          }
        }
      }
    }
  }
}
node {
  name: "mixed_2/conv/conv2d_params"
  op: "Const"
  attr {
    key: "_output_shapes"
    value {
      list {
        shape {
          dim {
            size: 1
          }
          dim {
            size: 1
          }
          dim {
            size: 288
          }
          dim {
            size: 64
          }
        }
      }
    }
  }
  attr {
    key: "dtype"
    value {
      type: DT_FLOAT
    }
  }
  attr {
    key: "value"
    value {
      tensor {
        dtype: DT_FLOAT
        tensor_shape {
          dim {
            size: 1
          }
          dim {
            size: 1
          }
          dim {
            size: 288
          }
          dim {
            size: 64
          }
        }
      }
    }
  }
}
node {
  name: "mixed_2/conv/Conv2D"
  op: "Conv2D"
  input: "mixed_1/join"
  input: "mixed_2/conv/conv2d_params"
  attr {
    key: "T"
    value {
      type: DT_FLOAT
    }
  }
  attr {
    key: "_output_shapes"
    value {
      list {
        shape {
          dim {
            size: 1
          }
          dim {
            size: 35
          }
          dim {
            size: 35
          }
          dim {
            size: 64
          }
        }
      }
    }
  }
  attr {
    key: "data_format"
    value {
      s: "NHWC"
    }
  }
  attr {
    key: "dilations"
    value {
      list {
        i: 1
        i: 1
        i: 1
        i: 1
      }
    }
  }
  attr {
    key: "padding"
    value {
      s: "SAME"
    }
  }
  attr {
    key: "strides"
    value {
      list {
        i: 1
        i: 1
        i: 1
        i: 1
      }
    }
  }
  attr {
    key: "use_cudnn_on_gpu"
    value {
      b: true
    }
  }
}
node {
  name: "mixed_2/conv/batchnorm/beta"
  op: "Const"
  attr {
    key: "_output_shapes"
    value {
      list {
        shape {
          dim {
            size: 64
          }
        }
      }
    }
  }
  attr {
    key: "dtype"
    value {
      type: DT_FLOAT
    }
  }
  attr {
    key: "value"
    value {
      tensor {
        dtype: DT_FLOAT
        tensor_shape {
          dim {
            size: 64
          }
        }
      }
    }
  }
}
node {
  name: "mixed_2/conv/batchnorm/gamma"
  op: "Const"
  attr {
    key: "_output_shapes"
    value {
      list {
        shape {
          dim {
            size: 64
          }
        }
      }
    }
  }
  attr {
    key: "dtype"
    value {
      type: DT_FLOAT
    }
  }
  attr {
    key: "value"
    value {
      tensor {
        dtype: DT_FLOAT
        tensor_shape {
          dim {
            size: 64
          }
        }
      }
    }
  }
}
node {
  name: "mixed_2/conv/batchnorm/moving_mean"
  op: "Const"
  attr {
    key: "_output_shapes"
    value {
      list {
        shape {
          dim {
            size: 64
          }
        }
      }
    }
  }
  attr {
    key: "dtype"
    value {
      type: DT_FLOAT
    }
  }
  attr {
    key: "value"
    value {
      tensor {
        dtype: DT_FLOAT
        tensor_shape {
          dim {
            size: 64
          }
        }
      }
    }
  }
}
node {
  name: "mixed_2/conv/batchnorm/moving_variance"
  op: "Const"
  attr {
    key: "_output_shapes"
    value {
      list {
        shape {
          dim {
            size: 64
          }
        }
      }
    }
  }
  attr {
    key: "dtype"
    value {
      type: DT_FLOAT
    }
  }
  attr {
    key: "value"
    value {
      tensor {
        dtype: DT_FLOAT
        tensor_shape {
          dim {
            size: 64
          }
        }
      }
    }
  }
}
node {
  name: "mixed_2/conv/batchnorm"
  op: "BatchNormWithGlobalNormalization"
  input: "mixed_2/conv/Conv2D"
  input: "mixed_2/conv/batchnorm/moving_mean"
  input: "mixed_2/conv/batchnorm/moving_variance"
  input: "mixed_2/conv/batchnorm/beta"
  input: "mixed_2/conv/batchnorm/gamma"
  attr {
    key: "T"
    value {
      type: DT_FLOAT
    }
  }
  attr {
    key: "_output_shapes"
    value {
      list {
        shape {
          dim {
            size: 1
          }
          dim {
            size: 35
          }
          dim {
            size: 35
          }
          dim {
            size: 64
          }
        }
      }
    }
  }
  attr {
    key: "scale_after_normalization"
    value {
      b: false
    }
  }
  attr {
    key: "variance_epsilon"
    value {
      f: 0.0010000000475
    }
  }
}
node {
  name: "mixed_2/conv/CheckNumerics"
  op: "CheckNumerics"
  input: "mixed_2/conv/batchnorm"
  attr {
    key: "T"
    value {
      type: DT_FLOAT
    }
  }
  attr {
    key: "_output_shapes"
    value {
      list {
        shape {
          dim {
            size: 1
          }
          dim {
            size: 35
          }
          dim {
            size: 35
          }
          dim {
            size: 64
          }
        }
      }
    }
  }
  attr {
    key: "message"
    value {
      s: "activation input is not finite."
    }
  }
}
node {
  name: "mixed_2/conv/control_dependency"
  op: "Identity"
  input: "mixed_2/conv/batchnorm"
  input: "^mixed_2/conv/CheckNumerics"
  attr {
    key: "T"
    value {
      type: DT_FLOAT
    }
  }
  attr {
    key: "_output_shapes"
    value {
      list {
        shape {
          dim {
            size: 1
          }
          dim {
            size: 35
          }
          dim {
            size: 35
          }
          dim {
            size: 64
          }
        }
      }
    }
  }
}
node {
  name: "mixed_2/conv"
  op: "Relu"
  input: "mixed_2/conv/control_dependency"
  attr {
    key: "T"
    value {
      type: DT_FLOAT
    }
  }
  attr {
    key: "_output_shapes"
    value {
      list {
        shape {
          dim {
            size: 1
          }
          dim {
            size: 35
          }
          dim {
            size: 35
          }
          dim {
            size: 64
          }
        }
      }
    }
  }
}
node {
  name: "mixed_2/tower/conv/conv2d_params"
  op: "Const"
  attr {
    key: "_output_shapes"
    value {
      list {
        shape {
          dim {
            size: 1
          }
          dim {
            size: 1
          }
          dim {
            size: 288
          }
          dim {
            size: 48
          }
        }
      }
    }
  }
  attr {
    key: "dtype"
    value {
      type: DT_FLOAT
    }
  }
  attr {
    key: "value"
    value {
      tensor {
        dtype: DT_FLOAT
        tensor_shape {
          dim {
            size: 1
          }
          dim {
            size: 1
          }
          dim {
            size: 288
          }
          dim {
            size: 48
          }
        }
      }
    }
  }
}
node {
  name: "mixed_2/tower/conv/Conv2D"
  op: "Conv2D"
  input: "mixed_1/join"
  input: "mixed_2/tower/conv/conv2d_params"
  attr {
    key: "T"
    value {
      type: DT_FLOAT
    }
  }
  attr {
    key: "_output_shapes"
    value {
      list {
        shape {
          dim {
            size: 1
          }
          dim {
            size: 35
          }
          dim {
            size: 35
          }
          dim {
            size: 48
          }
        }
      }
    }
  }
  attr {
    key: "data_format"
    value {
      s: "NHWC"
    }
  }
  attr {
    key: "dilations"
    value {
      list {
        i: 1
        i: 1
        i: 1
        i: 1
      }
    }
  }
  attr {
    key: "padding"
    value {
      s: "SAME"
    }
  }
  attr {
    key: "strides"
    value {
      list {
        i: 1
        i: 1
        i: 1
        i: 1
      }
    }
  }
  attr {
    key: "use_cudnn_on_gpu"
    value {
      b: true
    }
  }
}
node {
  name: "mixed_2/tower/conv/batchnorm/beta"
  op: "Const"
  attr {
    key: "_output_shapes"
    value {
      list {
        shape {
          dim {
            size: 48
          }
        }
      }
    }
  }
  attr {
    key: "dtype"
    value {
      type: DT_FLOAT
    }
  }
  attr {
    key: "value"
    value {
      tensor {
        dtype: DT_FLOAT
        tensor_shape {
          dim {
            size: 48
          }
        }
      }
    }
  }
}
node {
  name: "mixed_2/tower/conv/batchnorm/gamma"
  op: "Const"
  attr {
    key: "_output_shapes"
    value {
      list {
        shape {
          dim {
            size: 48
          }
        }
      }
    }
  }
  attr {
    key: "dtype"
    value {
      type: DT_FLOAT
    }
  }
  attr {
    key: "value"
    value {
      tensor {
        dtype: DT_FLOAT
        tensor_shape {
          dim {
            size: 48
          }
        }
      }
    }
  }
}
node {
  name: "mixed_2/tower/conv/batchnorm/moving_mean"
  op: "Const"
  attr {
    key: "_output_shapes"
    value {
      list {
        shape {
          dim {
            size: 48
          }
        }
      }
    }
  }
  attr {
    key: "dtype"
    value {
      type: DT_FLOAT
    }
  }
  attr {
    key: "value"
    value {
      tensor {
        dtype: DT_FLOAT
        tensor_shape {
          dim {
            size: 48
          }
        }
      }
    }
  }
}
node {
  name: "mixed_2/tower/conv/batchnorm/moving_variance"
  op: "Const"
  attr {
    key: "_output_shapes"
    value {
      list {
        shape {
          dim {
            size: 48
          }
        }
      }
    }
  }
  attr {
    key: "dtype"
    value {
      type: DT_FLOAT
    }
  }
  attr {
    key: "value"
    value {
      tensor {
        dtype: DT_FLOAT
        tensor_shape {
          dim {
            size: 48
          }
        }
      }
    }
  }
}
node {
  name: "mixed_2/tower/conv/batchnorm"
  op: "BatchNormWithGlobalNormalization"
  input: "mixed_2/tower/conv/Conv2D"
  input: "mixed_2/tower/conv/batchnorm/moving_mean"
  input: "mixed_2/tower/conv/batchnorm/moving_variance"
  input: "mixed_2/tower/conv/batchnorm/beta"
  input: "mixed_2/tower/conv/batchnorm/gamma"
  attr {
    key: "T"
    value {
      type: DT_FLOAT
    }
  }
  attr {
    key: "_output_shapes"
    value {
      list {
        shape {
          dim {
            size: 1
          }
          dim {
            size: 35
          }
          dim {
            size: 35
          }
          dim {
            size: 48
          }
        }
      }
    }
  }
  attr {
    key: "scale_after_normalization"
    value {
      b: false
    }
  }
  attr {
    key: "variance_epsilon"
    value {
      f: 0.0010000000475
    }
  }
}
node {
  name: "mixed_2/tower/conv/CheckNumerics"
  op: "CheckNumerics"
  input: "mixed_2/tower/conv/batchnorm"
  attr {
    key: "T"
    value {
      type: DT_FLOAT
    }
  }
  attr {
    key: "_output_shapes"
    value {
      list {
        shape {
          dim {
            size: 1
          }
          dim {
            size: 35
          }
          dim {
            size: 35
          }
          dim {
            size: 48
          }
        }
      }
    }
  }
  attr {
    key: "message"
    value {
      s: "activation input is not finite."
    }
  }
}
node {
  name: "mixed_2/tower/conv/control_dependency"
  op: "Identity"
  input: "mixed_2/tower/conv/batchnorm"
  input: "^mixed_2/tower/conv/CheckNumerics"
  attr {
    key: "T"
    value {
      type: DT_FLOAT
    }
  }
  attr {
    key: "_output_shapes"
    value {
      list {
        shape {
          dim {
            size: 1
          }
          dim {
            size: 35
          }
          dim {
            size: 35
          }
          dim {
            size: 48
          }
        }
      }
    }
  }
}
node {
  name: "mixed_2/tower/conv"
  op: "Relu"
  input: "mixed_2/tower/conv/control_dependency"
  attr {
    key: "T"
    value {
      type: DT_FLOAT
    }
  }
  attr {
    key: "_output_shapes"
    value {
      list {
        shape {
          dim {
            size: 1
          }
          dim {
            size: 35
          }
          dim {
            size: 35
          }
          dim {
            size: 48
          }
        }
      }
    }
  }
}
node {
  name: "mixed_2/tower/conv_1/conv2d_params"
  op: "Const"
  attr {
    key: "_output_shapes"
    value {
      list {
        shape {
          dim {
            size: 5
          }
          dim {
            size: 5
          }
          dim {
            size: 48
          }
          dim {
            size: 64
          }
        }
      }
    }
  }
  attr {
    key: "dtype"
    value {
      type: DT_FLOAT
    }
  }
  attr {
    key: "value"
    value {
      tensor {
        dtype: DT_FLOAT
        tensor_shape {
          dim {
            size: 5
          }
          dim {
            size: 5
          }
          dim {
            size: 48
          }
          dim {
            size: 64
          }
        }
      }
    }
  }
}
node {
  name: "mixed_2/tower/conv_1/Conv2D"
  op: "Conv2D"
  input: "mixed_2/tower/conv"
  input: "mixed_2/tower/conv_1/conv2d_params"
  attr {
    key: "T"
    value {
      type: DT_FLOAT
    }
  }
  attr {
    key: "_output_shapes"
    value {
      list {
        shape {
          dim {
            size: 1
          }
          dim {
            size: 35
          }
          dim {
            size: 35
          }
          dim {
            size: 64
          }
        }
      }
    }
  }
  attr {
    key: "data_format"
    value {
      s: "NHWC"
    }
  }
  attr {
    key: "dilations"
    value {
      list {
        i: 1
        i: 1
        i: 1
        i: 1
      }
    }
  }
  attr {
    key: "padding"
    value {
      s: "SAME"
    }
  }
  attr {
    key: "strides"
    value {
      list {
        i: 1
        i: 1
        i: 1
        i: 1
      }
    }
  }
  attr {
    key: "use_cudnn_on_gpu"
    value {
      b: true
    }
  }
}
node {
  name: "mixed_2/tower/conv_1/batchnorm/beta"
  op: "Const"
  attr {
    key: "_output_shapes"
    value {
      list {
        shape {
          dim {
            size: 64
          }
        }
      }
    }
  }
  attr {
    key: "dtype"
    value {
      type: DT_FLOAT
    }
  }
  attr {
    key: "value"
    value {
      tensor {
        dtype: DT_FLOAT
        tensor_shape {
          dim {
            size: 64
          }
        }
      }
    }
  }
}
node {
  name: "mixed_2/tower/conv_1/batchnorm/gamma"
  op: "Const"
  attr {
    key: "_output_shapes"
    value {
      list {
        shape {
          dim {
            size: 64
          }
        }
      }
    }
  }
  attr {
    key: "dtype"
    value {
      type: DT_FLOAT
    }
  }
  attr {
    key: "value"
    value {
      tensor {
        dtype: DT_FLOAT
        tensor_shape {
          dim {
            size: 64
          }
        }
      }
    }
  }
}
node {
  name: "mixed_2/tower/conv_1/batchnorm/moving_mean"
  op: "Const"
  attr {
    key: "_output_shapes"
    value {
      list {
        shape {
          dim {
            size: 64
          }
        }
      }
    }
  }
  attr {
    key: "dtype"
    value {
      type: DT_FLOAT
    }
  }
  attr {
    key: "value"
    value {
      tensor {
        dtype: DT_FLOAT
        tensor_shape {
          dim {
            size: 64
          }
        }
      }
    }
  }
}
node {
  name: "mixed_2/tower/conv_1/batchnorm/moving_variance"
  op: "Const"
  attr {
    key: "_output_shapes"
    value {
      list {
        shape {
          dim {
            size: 64
          }
        }
      }
    }
  }
  attr {
    key: "dtype"
    value {
      type: DT_FLOAT
    }
  }
  attr {
    key: "value"
    value {
      tensor {
        dtype: DT_FLOAT
        tensor_shape {
          dim {
            size: 64
          }
        }
      }
    }
  }
}
node {
  name: "mixed_2/tower/conv_1/batchnorm"
  op: "BatchNormWithGlobalNormalization"
  input: "mixed_2/tower/conv_1/Conv2D"
  input: "mixed_2/tower/conv_1/batchnorm/moving_mean"
  input: "mixed_2/tower/conv_1/batchnorm/moving_variance"
  input: "mixed_2/tower/conv_1/batchnorm/beta"
  input: "mixed_2/tower/conv_1/batchnorm/gamma"
  attr {
    key: "T"
    value {
      type: DT_FLOAT
    }
  }
  attr {
    key: "_output_shapes"
    value {
      list {
        shape {
          dim {
            size: 1
          }
          dim {
            size: 35
          }
          dim {
            size: 35
          }
          dim {
            size: 64
          }
        }
      }
    }
  }
  attr {
    key: "scale_after_normalization"
    value {
      b: false
    }
  }
  attr {
    key: "variance_epsilon"
    value {
      f: 0.0010000000475
    }
  }
}
node {
  name: "mixed_2/tower/conv_1/CheckNumerics"
  op: "CheckNumerics"
  input: "mixed_2/tower/conv_1/batchnorm"
  attr {
    key: "T"
    value {
      type: DT_FLOAT
    }
  }
  attr {
    key: "_output_shapes"
    value {
      list {
        shape {
          dim {
            size: 1
          }
          dim {
            size: 35
          }
          dim {
            size: 35
          }
          dim {
            size: 64
          }
        }
      }
    }
  }
  attr {
    key: "message"
    value {
      s: "activation input is not finite."
    }
  }
}
node {
  name: "mixed_2/tower/conv_1/control_dependency"
  op: "Identity"
  input: "mixed_2/tower/conv_1/batchnorm"
  input: "^mixed_2/tower/conv_1/CheckNumerics"
  attr {
    key: "T"
    value {
      type: DT_FLOAT
    }
  }
  attr {
    key: "_output_shapes"
    value {
      list {
        shape {
          dim {
            size: 1
          }
          dim {
            size: 35
          }
          dim {
            size: 35
          }
          dim {
            size: 64
          }
        }
      }
    }
  }
}
node {
  name: "mixed_2/tower/conv_1"
  op: "Relu"
  input: "mixed_2/tower/conv_1/control_dependency"
  attr {
    key: "T"
    value {
      type: DT_FLOAT
    }
  }
  attr {
    key: "_output_shapes"
    value {
      list {
        shape {
          dim {
            size: 1
          }
          dim {
            size: 35
          }
          dim {
            size: 35
          }
          dim {
            size: 64
          }
        }
      }
    }
  }
}
node {
  name: "mixed_2/tower_1/conv/conv2d_params"
  op: "Const"
  attr {
    key: "_output_shapes"
    value {
      list {
        shape {
          dim {
            size: 1
          }
          dim {
            size: 1
          }
          dim {
            size: 288
          }
          dim {
            size: 64
          }
        }
      }
    }
  }
  attr {
    key: "dtype"
    value {
      type: DT_FLOAT
    }
  }
  attr {
    key: "value"
    value {
      tensor {
        dtype: DT_FLOAT
        tensor_shape {
          dim {
            size: 1
          }
          dim {
            size: 1
          }
          dim {
            size: 288
          }
          dim {
            size: 64
          }
        }
      }
    }
  }
}
node {
  name: "mixed_2/tower_1/conv/Conv2D"
  op: "Conv2D"
  input: "mixed_1/join"
  input: "mixed_2/tower_1/conv/conv2d_params"
  attr {
    key: "T"
    value {
      type: DT_FLOAT
    }
  }
  attr {
    key: "_output_shapes"
    value {
      list {
        shape {
          dim {
            size: 1
          }
          dim {
            size: 35
          }
          dim {
            size: 35
          }
          dim {
            size: 64
          }
        }
      }
    }
  }
  attr {
    key: "data_format"
    value {
      s: "NHWC"
    }
  }
  attr {
    key: "dilations"
    value {
      list {
        i: 1
        i: 1
        i: 1
        i: 1
      }
    }
  }
  attr {
    key: "padding"
    value {
      s: "SAME"
    }
  }
  attr {
    key: "strides"
    value {
      list {
        i: 1
        i: 1
        i: 1
        i: 1
      }
    }
  }
  attr {
    key: "use_cudnn_on_gpu"
    value {
      b: true
    }
  }
}
node {
  name: "mixed_2/tower_1/conv/batchnorm/beta"
  op: "Const"
  attr {
    key: "_output_shapes"
    value {
      list {
        shape {
          dim {
            size: 64
          }
        }
      }
    }
  }
  attr {
    key: "dtype"
    value {
      type: DT_FLOAT
    }
  }
  attr {
    key: "value"
    value {
      tensor {
        dtype: DT_FLOAT
        tensor_shape {
          dim {
            size: 64
          }
        }
      }
    }
  }
}
node {
  name: "mixed_2/tower_1/conv/batchnorm/gamma"
  op: "Const"
  attr {
    key: "_output_shapes"
    value {
      list {
        shape {
          dim {
            size: 64
          }
        }
      }
    }
  }
  attr {
    key: "dtype"
    value {
      type: DT_FLOAT
    }
  }
  attr {
    key: "value"
    value {
      tensor {
        dtype: DT_FLOAT
        tensor_shape {
          dim {
            size: 64
          }
        }
      }
    }
  }
}
node {
  name: "mixed_2/tower_1/conv/batchnorm/moving_mean"
  op: "Const"
  attr {
    key: "_output_shapes"
    value {
      list {
        shape {
          dim {
            size: 64
          }
        }
      }
    }
  }
  attr {
    key: "dtype"
    value {
      type: DT_FLOAT
    }
  }
  attr {
    key: "value"
    value {
      tensor {
        dtype: DT_FLOAT
        tensor_shape {
          dim {
            size: 64
          }
        }
      }
    }
  }
}
node {
  name: "mixed_2/tower_1/conv/batchnorm/moving_variance"
  op: "Const"
  attr {
    key: "_output_shapes"
    value {
      list {
        shape {
          dim {
            size: 64
          }
        }
      }
    }
  }
  attr {
    key: "dtype"
    value {
      type: DT_FLOAT
    }
  }
  attr {
    key: "value"
    value {
      tensor {
        dtype: DT_FLOAT
        tensor_shape {
          dim {
            size: 64
          }
        }
      }
    }
  }
}
node {
  name: "mixed_2/tower_1/conv/batchnorm"
  op: "BatchNormWithGlobalNormalization"
  input: "mixed_2/tower_1/conv/Conv2D"
  input: "mixed_2/tower_1/conv/batchnorm/moving_mean"
  input: "mixed_2/tower_1/conv/batchnorm/moving_variance"
  input: "mixed_2/tower_1/conv/batchnorm/beta"
  input: "mixed_2/tower_1/conv/batchnorm/gamma"
  attr {
    key: "T"
    value {
      type: DT_FLOAT
    }
  }
  attr {
    key: "_output_shapes"
    value {
      list {
        shape {
          dim {
            size: 1
          }
          dim {
            size: 35
          }
          dim {
            size: 35
          }
          dim {
            size: 64
          }
        }
      }
    }
  }
  attr {
    key: "scale_after_normalization"
    value {
      b: false
    }
  }
  attr {
    key: "variance_epsilon"
    value {
      f: 0.0010000000475
    }
  }
}
node {
  name: "mixed_2/tower_1/conv/CheckNumerics"
  op: "CheckNumerics"
  input: "mixed_2/tower_1/conv/batchnorm"
  attr {
    key: "T"
    value {
      type: DT_FLOAT
    }
  }
  attr {
    key: "_output_shapes"
    value {
      list {
        shape {
          dim {
            size: 1
          }
          dim {
            size: 35
          }
          dim {
            size: 35
          }
          dim {
            size: 64
          }
        }
      }
    }
  }
  attr {
    key: "message"
    value {
      s: "activation input is not finite."
    }
  }
}
node {
  name: "mixed_2/tower_1/conv/control_dependency"
  op: "Identity"
  input: "mixed_2/tower_1/conv/batchnorm"
  input: "^mixed_2/tower_1/conv/CheckNumerics"
  attr {
    key: "T"
    value {
      type: DT_FLOAT
    }
  }
  attr {
    key: "_output_shapes"
    value {
      list {
        shape {
          dim {
            size: 1
          }
          dim {
            size: 35
          }
          dim {
            size: 35
          }
          dim {
            size: 64
          }
        }
      }
    }
  }
}
node {
  name: "mixed_2/tower_1/conv"
  op: "Relu"
  input: "mixed_2/tower_1/conv/control_dependency"
  attr {
    key: "T"
    value {
      type: DT_FLOAT
    }
  }
  attr {
    key: "_output_shapes"
    value {
      list {
        shape {
          dim {
            size: 1
          }
          dim {
            size: 35
          }
          dim {
            size: 35
          }
          dim {
            size: 64
          }
        }
      }
    }
  }
}
node {
  name: "mixed_2/tower_1/conv_1/conv2d_params"
  op: "Const"
  attr {
    key: "_output_shapes"
    value {
      list {
        shape {
          dim {
            size: 3
          }
          dim {
            size: 3
          }
          dim {
            size: 64
          }
          dim {
            size: 96
          }
        }
      }
    }
  }
  attr {
    key: "dtype"
    value {
      type: DT_FLOAT
    }
  }
  attr {
    key: "value"
    value {
      tensor {
        dtype: DT_FLOAT
        tensor_shape {
          dim {
            size: 3
          }
          dim {
            size: 3
          }
          dim {
            size: 64
          }
          dim {
            size: 96
…
            size: 384
          }
          dim {
            size: 384
          }
        }
      }
    }
  }
}
node {
  name: "mixed_10/tower/mixed/conv_1/Conv2D"
  op: "Conv2D"
  input: "mixed_10/tower/conv"
  input: "mixed_10/tower/mixed/conv_1/conv2d_params"
  attr {
    key: "T"
    value {
      type: DT_FLOAT
    }
  }
  attr {
    key: "_output_shapes"
    value {
      list {
        shape {
          dim {
            size: 1
          }
          dim {
            size: 8
          }
          dim {
            size: 8
          }
          dim {
            size: 384
          }
        }
      }
    }
  }
  attr {
    key: "data_format"
    value {
      s: "NHWC"
    }
  }
  attr {
    key: "dilations"
    value {
      list {
        i: 1
        i: 1
        i: 1
        i: 1
      }
    }
  }
  attr {
    key: "padding"
    value {
      s: "SAME"
    }
  }
  attr {
    key: "strides"
    value {
      list {
        i: 1
        i: 1
        i: 1
        i: 1
      }
    }
  }
  attr {
    key: "use_cudnn_on_gpu"
    value {
      b: true
    }
  }
}
node {
  name: "mixed_10/tower/mixed/conv_1/batchnorm/beta"
  op: "Const"
  attr {
    key: "_output_shapes"
    value {
      list {
        shape {
          dim {
            size: 384
          }
        }
      }
    }
  }
  attr {
    key: "dtype"
    value {
      type: DT_FLOAT
    }
  }
  attr {
    key: "value"
    value {
      tensor {
        dtype: DT_FLOAT
        tensor_shape {
          dim {
            size: 384
          }
        }
      }
    }
  }
}
node {
  name: "mixed_10/tower/mixed/conv_1/batchnorm/gamma"
  op: "Const"
  attr {
    key: "_output_shapes"
    value {
      list {
        shape {
          dim {
            size: 384
          }
        }
      }
    }
  }
  attr {
    key: "dtype"
    value {
      type: DT_FLOAT
    }
  }
  attr {
    key: "value"
    value {
      tensor {
        dtype: DT_FLOAT
        tensor_shape {
          dim {
            size: 384
          }
        }
      }
    }
  }
}
node {
  name: "mixed_10/tower/mixed/conv_1/batchnorm/moving_mean"
  op: "Const"
  attr {
    key: "_output_shapes"
    value {
      list {
        shape {
          dim {
            size: 384
          }
        }
      }
    }
  }
  attr {
    key: "dtype"
    value {
      type: DT_FLOAT
    }
  }
  attr {
    key: "value"
    value {
      tensor {
        dtype: DT_FLOAT
        tensor_shape {
          dim {
            size: 384
          }
        }
      }
    }
  }
}
node {
  name: "mixed_10/tower/mixed/conv_1/batchnorm/moving_variance"
  op: "Const"
  attr {
    key: "_output_shapes"
    value {
      list {
        shape {
          dim {
            size: 384
          }
        }
      }
    }
  }
  attr {
    key: "dtype"
    value {
      type: DT_FLOAT
    }
  }
  attr {
    key: "value"
    value {
      tensor {
        dtype: DT_FLOAT
        tensor_shape {
          dim {
            size: 384
          }
        }
      }
    }
  }
}
node {
  name: "mixed_10/tower/mixed/conv_1/batchnorm"
  op: "BatchNormWithGlobalNormalization"
  input: "mixed_10/tower/mixed/conv_1/Conv2D"
  input: "mixed_10/tower/mixed/conv_1/batchnorm/moving_mean"
  input: "mixed_10/tower/mixed/conv_1/batchnorm/moving_variance"
  input: "mixed_10/tower/mixed/conv_1/batchnorm/beta"
  input: "mixed_10/tower/mixed/conv_1/batchnorm/gamma"
  attr {
    key: "T"
    value {
      type: DT_FLOAT
    }
  }
  attr {
    key: "_output_shapes"
    value {
      list {
        shape {
          dim {
            size: 1
          }
          dim {
            size: 8
          }
          dim {
            size: 8
          }
          dim {
            size: 384
          }
        }
      }
    }
  }
  attr {
    key: "scale_after_normalization"
    value {
      b: false
    }
  }
  attr {
    key: "variance_epsilon"
    value {
      f: 0.0010000000475
    }
  }
}
node {
  name: "mixed_10/tower/mixed/conv_1/CheckNumerics"
  op: "CheckNumerics"
  input: "mixed_10/tower/mixed/conv_1/batchnorm"
  attr {
    key: "T"
    value {
      type: DT_FLOAT
    }
  }
  attr {
    key: "_output_shapes"
    value {
      list {
        shape {
          dim {
            size: 1
          }
          dim {
            size: 8
          }
          dim {
            size: 8
          }
          dim {
            size: 384
          }
        }
      }
    }
  }
  attr {
    key: "message"
    value {
      s: "activation input is not finite."
    }
  }
}
node {
  name: "mixed_10/tower/mixed/conv_1/control_dependency"
  op: "Identity"
  input: "mixed_10/tower/mixed/conv_1/batchnorm"
  input: "^mixed_10/tower/mixed/conv_1/CheckNumerics"
  attr {
    key: "T"
    value {
      type: DT_FLOAT
    }
  }
  attr {
    key: "_output_shapes"
    value {
      list {
        shape {
          dim {
            size: 1
          }
          dim {
            size: 8
          }
          dim {
            size: 8
          }
          dim {
            size: 384
          }
        }
      }
    }
  }
}
node {
  name: "mixed_10/tower/mixed/conv_1"
  op: "Relu"
  input: "mixed_10/tower/mixed/conv_1/control_dependency"
  attr {
    key: "T"
    value {
      type: DT_FLOAT
    }
  }
  attr {
    key: "_output_shapes"
    value {
      list {
        shape {
          dim {
            size: 1
          }
          dim {
            size: 8
          }
          dim {
            size: 8
          }
          dim {
            size: 384
          }
        }
      }
    }
  }
}
node {
  name: "mixed_10/tower_1/conv/conv2d_params"
  op: "Const"
  attr {
    key: "_output_shapes"
    value {
      list {
        shape {
          dim {
            size: 1
          }
          dim {
            size: 1
          }
          dim {
            size: 2048
          }
          dim {
            size: 448
          }
        }
      }
    }
  }
  attr {
    key: "dtype"
    value {
      type: DT_FLOAT
    }
  }
  attr {
    key: "value"
    value {
      tensor {
        dtype: DT_FLOAT
        tensor_shape {
          dim {
            size: 1
          }
          dim {
            size: 1
          }
          dim {
            size: 2048
          }
          dim {
            size: 448
          }
        }
      }
    }
  }
}
node {
  name: "mixed_10/tower_1/conv/Conv2D"
  op: "Conv2D"
  input: "mixed_9/join"
  input: "mixed_10/tower_1/conv/conv2d_params"
  attr {
    key: "T"
    value {
      type: DT_FLOAT
    }
  }
  attr {
    key: "_output_shapes"
    value {
      list {
        shape {
          dim {
            size: 1
          }
          dim {
            size: 8
          }
          dim {
            size: 8
          }
          dim {
            size: 448
          }
        }
      }
    }
  }
  attr {
    key: "data_format"
    value {
      s: "NHWC"
    }
  }
  attr {
    key: "dilations"
    value {
      list {
        i: 1
        i: 1
        i: 1
        i: 1
      }
    }
  }
  attr {
    key: "padding"
    value {
      s: "SAME"
    }
  }
  attr {
    key: "strides"
    value {
      list {
        i: 1
        i: 1
        i: 1
        i: 1
      }
    }
  }
  attr {
    key: "use_cudnn_on_gpu"
    value {
      b: true
    }
  }
}
node {
  name: "mixed_10/tower_1/conv/batchnorm/beta"
  op: "Const"
  attr {
    key: "_output_shapes"
    value {
      list {
        shape {
          dim {
            size: 448
          }
        }
      }
    }
  }
  attr {
    key: "dtype"
    value {
      type: DT_FLOAT
    }
  }
  attr {
    key: "value"
    value {
      tensor {
        dtype: DT_FLOAT
        tensor_shape {
          dim {
            size: 448
          }
        }
      }
    }
  }
}
node {
  name: "mixed_10/tower_1/conv/batchnorm/gamma"
  op: "Const"
  attr {
    key: "_output_shapes"
    value {
      list {
        shape {
          dim {
            size: 448
          }
        }
      }
    }
  }
  attr {
    key: "dtype"
    value {
      type: DT_FLOAT
    }
  }
  attr {
    key: "value"
    value {
      tensor {
        dtype: DT_FLOAT
        tensor_shape {
          dim {
            size: 448
          }
        }
      }
    }
  }
}
node {
  name: "mixed_10/tower_1/conv/batchnorm/moving_mean"
  op: "Const"
  attr {
    key: "_output_shapes"
    value {
      list {
        shape {
          dim {
            size: 448
          }
        }
      }
    }
  }
  attr {
    key: "dtype"
    value {
      type: DT_FLOAT
    }
  }
  attr {
    key: "value"
    value {
      tensor {
        dtype: DT_FLOAT
        tensor_shape {
          dim {
            size: 448
          }
        }
      }
    }
  }
}
node {
  name: "mixed_10/tower_1/conv/batchnorm/moving_variance"
  op: "Const"
  attr {
    key: "_output_shapes"
    value {
      list {
        shape {
          dim {
            size: 448
          }
        }
      }
    }
  }
  attr {
    key: "dtype"
    value {
      type: DT_FLOAT
    }
  }
  attr {
    key: "value"
    value {
      tensor {
        dtype: DT_FLOAT
        tensor_shape {
          dim {
            size: 448
          }
        }
      }
    }
  }
}
node {
  name: "mixed_10/tower_1/conv/batchnorm"
  op: "BatchNormWithGlobalNormalization"
  input: "mixed_10/tower_1/conv/Conv2D"
  input: "mixed_10/tower_1/conv/batchnorm/moving_mean"
  input: "mixed_10/tower_1/conv/batchnorm/moving_variance"
  input: "mixed_10/tower_1/conv/batchnorm/beta"
  input: "mixed_10/tower_1/conv/batchnorm/gamma"
  attr {
    key: "T"
    value {
      type: DT_FLOAT
    }
  }
  attr {
    key: "_output_shapes"
    value {
      list {
        shape {
          dim {
            size: 1
          }
          dim {
            size: 8
          }
          dim {
            size: 8
          }
          dim {
            size: 448
          }
        }
      }
    }
  }
  attr {
    key: "scale_after_normalization"
    value {
      b: false
    }
  }
  attr {
    key: "variance_epsilon"
    value {
      f: 0.0010000000475
    }
  }
}
node {
  name: "mixed_10/tower_1/conv/CheckNumerics"
  op: "CheckNumerics"
  input: "mixed_10/tower_1/conv/batchnorm"
  attr {
    key: "T"
    value {
      type: DT_FLOAT
    }
  }
  attr {
    key: "_output_shapes"
    value {
      list {
        shape {
          dim {
            size: 1
          }
          dim {
            size: 8
          }
          dim {
            size: 8
          }
          dim {
            size: 448
          }
        }
      }
    }
  }
  attr {
    key: "message"
    value {
      s: "activation input is not finite."
    }
  }
}
node {
  name: "mixed_10/tower_1/conv/control_dependency"
  op: "Identity"
  input: "mixed_10/tower_1/conv/batchnorm"
  input: "^mixed_10/tower_1/conv/CheckNumerics"
  attr {
    key: "T"
    value {
      type: DT_FLOAT
    }
  }
  attr {
    key: "_output_shapes"
    value {
      list {
        shape {
          dim {
            size: 1
          }
          dim {
            size: 8
          }
          dim {
            size: 8
          }
          dim {
            size: 448
          }
        }
      }
    }
  }
}
node {
  name: "mixed_10/tower_1/conv"
  op: "Relu"
  input: "mixed_10/tower_1/conv/control_dependency"
  attr {
    key: "T"
    value {
      type: DT_FLOAT
    }
  }
  attr {
    key: "_output_shapes"
    value {
      list {
        shape {
          dim {
            size: 1
          }
          dim {
            size: 8
          }
          dim {
            size: 8
          }
          dim {
            size: 448
          }
        }
      }
    }
  }
}
node {
  name: "mixed_10/tower_1/conv_1/conv2d_params"
  op: "Const"
  attr {
    key: "_output_shapes"
    value {
      list {
        shape {
          dim {
            size: 3
          }
          dim {
            size: 3
          }
          dim {
            size: 448
          }
          dim {
            size: 384
          }
        }
      }
    }
  }
  attr {
    key: "dtype"
    value {
      type: DT_FLOAT
    }
  }
  attr {
    key: "value"
    value {
      tensor {
        dtype: DT_FLOAT
        tensor_shape {
          dim {
            size: 3
          }
          dim {
            size: 3
          }
          dim {
            size: 448
          }
          dim {
            size: 384
          }
        }
      }
    }
  }
}
node {
  name: "mixed_10/tower_1/conv_1/Conv2D"
  op: "Conv2D"
  input: "mixed_10/tower_1/conv"
  input: "mixed_10/tower_1/conv_1/conv2d_params"
  attr {
    key: "T"
    value {
      type: DT_FLOAT
    }
  }
  attr {
    key: "_output_shapes"
    value {
      list {
        shape {
          dim {
            size: 1
          }
          dim {
            size: 8
          }
          dim {
            size: 8
          }
          dim {
            size: 384
          }
        }
      }
    }
  }
  attr {
    key: "data_format"
    value {
      s: "NHWC"
    }
  }
  attr {
    key: "dilations"
    value {
      list {
        i: 1
        i: 1
        i: 1
        i: 1
      }
    }
  }
  attr {
    key: "padding"
    value {
      s: "SAME"
    }
  }
  attr {
    key: "strides"
    value {
      list {
        i: 1
        i: 1
        i: 1
        i: 1
      }
    }
  }
  attr {
    key: "use_cudnn_on_gpu"
    value {
      b: true
    }
  }
}
node {
  name: "mixed_10/tower_1/conv_1/batchnorm/beta"
  op: "Const"
  attr {
    key: "_output_shapes"
    value {
      list {
        shape {
          dim {
            size: 384
          }
        }
      }
    }
  }
  attr {
    key: "dtype"
    value {
      type: DT_FLOAT
    }
  }
  attr {
    key: "value"
    value {
      tensor {
        dtype: DT_FLOAT
        tensor_shape {
          dim {
            size: 384
          }
        }
      }
    }
  }
}
node {
  name: "mixed_10/tower_1/conv_1/batchnorm/gamma"
  op: "Const"
  attr {
    key: "_output_shapes"
    value {
      list {
        shape {
          dim {
            size: 384
          }
        }
      }
    }
  }
  attr {
    key: "dtype"
    value {
      type: DT_FLOAT
    }
  }
  attr {
    key: "value"
    value {
      tensor {
        dtype: DT_FLOAT
        tensor_shape {
          dim {
            size: 384
          }
        }
      }
    }
  }
}
node {
  name: "mixed_10/tower_1/conv_1/batchnorm/moving_mean"
  op: "Const"
  attr {
    key: "_output_shapes"
    value {
      list {
        shape {
          dim {
            size: 384
          }
        }
      }
    }
  }
  attr {
    key: "dtype"
    value {
      type: DT_FLOAT
    }
  }
  attr {
    key: "value"
    value {
      tensor {
        dtype: DT_FLOAT
        tensor_shape {
          dim {
            size: 384
          }
        }
      }
    }
  }
}
node {
  name: "mixed_10/tower_1/conv_1/batchnorm/moving_variance"
  op: "Const"
  attr {
    key: "_output_shapes"
    value {
      list {
        shape {
          dim {
            size: 384
          }
        }
      }
    }
  }
  attr {
    key: "dtype"
    value {
      type: DT_FLOAT
    }
  }
  attr {
    key: "value"
    value {
      tensor {
        dtype: DT_FLOAT
        tensor_shape {
          dim {
            size: 384
          }
        }
      }
    }
  }
}
node {
  name: "mixed_10/tower_1/conv_1/batchnorm"
  op: "BatchNormWithGlobalNormalization"
  input: "mixed_10/tower_1/conv_1/Conv2D"
  input: "mixed_10/tower_1/conv_1/batchnorm/moving_mean"
  input: "mixed_10/tower_1/conv_1/batchnorm/moving_variance"
  input: "mixed_10/tower_1/conv_1/batchnorm/beta"
  input: "mixed_10/tower_1/conv_1/batchnorm/gamma"
  attr {
    key: "T"
    value {
      type: DT_FLOAT
    }
  }
  attr {
    key: "_output_shapes"
    value {
      list {
        shape {
          dim {
            size: 1
          }
          dim {
            size: 8
          }
          dim {
            size: 8
          }
          dim {
            size: 384
          }
        }
      }
    }
  }
  attr {
    key: "scale_after_normalization"
    value {
      b: false
    }
  }
  attr {
    key: "variance_epsilon"
    value {
      f: 0.0010000000475
    }
  }
}
node {
  name: "mixed_10/tower_1/conv_1/CheckNumerics"
  op: "CheckNumerics"
  input: "mixed_10/tower_1/conv_1/batchnorm"
  attr {
    key: "T"
    value {
      type: DT_FLOAT
    }
  }
  attr {
    key: "_output_shapes"
    value {
      list {
        shape {
          dim {
            size: 1
          }
          dim {
            size: 8
          }
          dim {
            size: 8
          }
          dim {
            size: 384
          }
        }
      }
    }
  }
  attr {
    key: "message"
    value {
      s: "activation input is not finite."
    }
  }
}
node {
  name: "mixed_10/tower_1/conv_1/control_dependency"
  op: "Identity"
  input: "mixed_10/tower_1/conv_1/batchnorm"
  input: "^mixed_10/tower_1/conv_1/CheckNumerics"
  attr {
    key: "T"
    value {
      type: DT_FLOAT
    }
  }
  attr {
    key: "_output_shapes"
    value {
      list {
        shape {
          dim {
            size: 1
          }
          dim {
            size: 8
          }
          dim {
            size: 8
          }
          dim {
            size: 384
          }
        }
      }
    }
  }
}
node {
  name: "mixed_10/tower_1/conv_1"
  op: "Relu"
  input: "mixed_10/tower_1/conv_1/control_dependency"
  attr {
    key: "T"
    value {
      type: DT_FLOAT
    }
  }
  attr {
    key: "_output_shapes"
    value {
      list {
        shape {
          dim {
            size: 1
          }
          dim {
            size: 8
          }
          dim {
            size: 8
          }
          dim {
            size: 384
          }
        }
      }
    }
  }
}
node {
  name: "mixed_10/tower_1/mixed/conv/conv2d_params"
  op: "Const"
  attr {
    key: "_output_shapes"
    value {
      list {
        shape {
          dim {
            size: 1
          }
          dim {
            size: 3
          }
          dim {
            size: 384
          }
          dim {
            size: 384
          }
        }
      }
    }
  }
  attr {
    key: "dtype"
    value {
      type: DT_FLOAT
    }
  }
  attr {
    key: "value"
    value {
      tensor {
        dtype: DT_FLOAT
        tensor_shape {
          dim {
            size: 1
          }
          dim {
            size: 3
          }
          dim {
            size: 384
          }
          dim {
            size: 384
          }
        }
      }
    }
  }
}
node {
  name: "mixed_10/tower_1/mixed/conv/Conv2D"
  op: "Conv2D"
  input: "mixed_10/tower_1/conv_1"
  input: "mixed_10/tower_1/mixed/conv/conv2d_params"
  attr {
    key: "T"
    value {
      type: DT_FLOAT
    }
  }
  attr {
    key: "_output_shapes"
    value {
      list {
        shape {
          dim {
            size: 1
          }
          dim {
            size: 8
          }
          dim {
            size: 8
          }
          dim {
            size: 384
          }
        }
      }
    }
  }
  attr {
    key: "data_format"
    value {
      s: "NHWC"
    }
  }
  attr {
    key: "dilations"
    value {
      list {
        i: 1
        i: 1
        i: 1
        i: 1
      }
    }
  }
  attr {
    key: "padding"
    value {
      s: "SAME"
    }
  }
  attr {
    key: "strides"
    value {
      list {
        i: 1
        i: 1
        i: 1
        i: 1
      }
    }
  }
  attr {
    key: "use_cudnn_on_gpu"
    value {
      b: true
    }
  }
}
node {
  name: "mixed_10/tower_1/mixed/conv/batchnorm/beta"
  op: "Const"
  attr {
    key: "_output_shapes"
    value {
      list {
        shape {
          dim {
            size: 384
          }
        }
      }
    }
  }
  attr {
    key: "dtype"
    value {
      type: DT_FLOAT
    }
  }
  attr {
    key: "value"
    value {
      tensor {
        dtype: DT_FLOAT
        tensor_shape {
          dim {
            size: 384
          }
        }
      }
    }
  }
}
node {
  name: "mixed_10/tower_1/mixed/conv/batchnorm/gamma"
  op: "Const"
  attr {
    key: "_output_shapes"
    value {
      list {
        shape {
          dim {
            size: 384
          }
        }
      }
    }
  }
  attr {
    key: "dtype"
    value {
      type: DT_FLOAT
    }
  }
  attr {
    key: "value"
    value {
      tensor {
        dtype: DT_FLOAT
        tensor_shape {
          dim {
            size: 384
          }
        }
      }
    }
  }
}
node {
  name: "mixed_10/tower_1/mixed/conv/batchnorm/moving_mean"
  op: "Const"
  attr {
    key: "_output_shapes"
    value {
      list {
        shape {
          dim {
            size: 384
          }
        }
      }
    }
  }
  attr {
    key: "dtype"
    value {
      type: DT_FLOAT
    }
  }
  attr {
    key: "value"
    value {
      tensor {
        dtype: DT_FLOAT
        tensor_shape {
          dim {
            size: 384
          }
        }
      }
    }
  }
}
node {
  name: "mixed_10/tower_1/mixed/conv/batchnorm/moving_variance"
  op: "Const"
  attr {
    key: "_output_shapes"
    value {
      list {
        shape {
          dim {
            size: 384
          }
        }
      }
    }
  }
  attr {
    key: "dtype"
    value {
      type: DT_FLOAT
    }
  }
  attr {
    key: "value"
    value {
      tensor {
        dtype: DT_FLOAT
        tensor_shape {
          dim {
            size: 384
          }
        }
      }
    }
  }
}
node {
  name: "mixed_10/tower_1/mixed/conv/batchnorm"
  op: "BatchNormWithGlobalNormalization"
  input: "mixed_10/tower_1/mixed/conv/Conv2D"
  input: "mixed_10/tower_1/mixed/conv/batchnorm/moving_mean"
  input: "mixed_10/tower_1/mixed/conv/batchnorm/moving_variance"
  input: "mixed_10/tower_1/mixed/conv/batchnorm/beta"
  input: "mixed_10/tower_1/mixed/conv/batchnorm/gamma"
  attr {
    key: "T"
    value {
      type: DT_FLOAT
    }
  }
  attr {
    key: "_output_shapes"
    value {
      list {
        shape {
          dim {
            size: 1
          }
          dim {
            size: 8
          }
          dim {
            size: 8
          }
          dim {
            size: 384
          }
        }
      }
    }
  }
  attr {
    key: "scale_after_normalization"
    value {
      b: false
    }
  }
  attr {
    key: "variance_epsilon"
    value {
      f: 0.0010000000475
    }
  }
}
node {
  name: "mixed_10/tower_1/mixed/conv/CheckNumerics"
  op: "CheckNumerics"
  input: "mixed_10/tower_1/mixed/conv/batchnorm"
  attr {
    key: "T"
    value {
      type: DT_FLOAT
    }
  }
  attr {
    key: "_output_shapes"
    value {
      list {
        shape {
          dim {
            size: 1
          }
          dim {
            size: 8
          }
          dim {
            size: 8
          }
          dim {
            size: 384
          }
        }
      }
    }
  }
  attr {
    key: "message"
    value {
      s: "activation input is not finite."
    }
  }
}
node {
  name: "mixed_10/tower_1/mixed/conv/control_dependency"
  op: "Identity"
  input: "mixed_10/tower_1/mixed/conv/batchnorm"
  input: "^mixed_10/tower_1/mixed/conv/CheckNumerics"
  attr {
    key: "T"
    value {
      type: DT_FLOAT
    }
  }
  attr {
    key: "_output_shapes"
    value {
      list {
        shape {
          dim {
            size: 1
          }
          dim {
            size: 8
          }
          dim {
            size: 8
          }
          dim {
            size: 384
          }
        }
      }
    }
  }
}
node {
  name: "mixed_10/tower_1/mixed/conv"
  op: "Relu"
  input: "mixed_10/tower_1/mixed/conv/control_dependency"
  attr {
    key: "T"
    value {
      type: DT_FLOAT
    }
  }
  attr {
    key: "_output_shapes"
    value {
      list {
        shape {
          dim {
            size: 1
          }
          dim {
            size: 8
          }
          dim {
            size: 8
          }
          dim {
            size: 384
          }
        }
      }
    }
  }
}
node {
  name: "mixed_10/tower_1/mixed/conv_1/conv2d_params"
  op: "Const"
  attr {
    key: "_output_shapes"
    value {
      list {
        shape {
          dim {
            size: 3
          }
          dim {
            size: 1
          }
          dim {
            size: 384
          }
          dim {
            size: 384
          }
        }
      }
    }
  }
  attr {
    key: "dtype"
    value {
      type: DT_FLOAT
    }
  }
  attr {
    key: "value"
    value {
      tensor {
        dtype: DT_FLOAT
        tensor_shape {
          dim {
            size: 3
          }
          dim {
            size: 1
          }
          dim {
            size: 384
          }
          dim {
            size: 384
          }
        }
      }
    }
  }
}
node {
  name: "mixed_10/tower_1/mixed/conv_1/Conv2D"
  op: "Conv2D"
  input: "mixed_10/tower_1/conv_1"
  input: "mixed_10/tower_1/mixed/conv_1/conv2d_params"
  attr {
    key: "T"
    value {
      type: DT_FLOAT
    }
  }
  attr {
    key: "_output_shapes"
    value {
      list {
        shape {
          dim {
            size: 1
          }
          dim {
            size: 8
          }
          dim {
            size: 8
          }
          dim {
            size: 384
          }
        }
      }
    }
  }
  attr {
    key: "data_format"
    value {
      s: "NHWC"
    }
  }
  attr {
    key: "dilations"
    value {
      list {
        i: 1
        i: 1
        i: 1
        i: 1
      }
    }
  }
  attr {
    key: "padding"
    value {
      s: "SAME"
    }
  }
  attr {
    key: "strides"
    value {
      list {
        i: 1
        i: 1
        i: 1
        i: 1
      }
    }
  }
  attr {
    key: "use_cudnn_on_gpu"
    value {
      b: true
    }
  }
}
node {
  name: "mixed_10/tower_1/mixed/conv_1/batchnorm/beta"
  op: "Const"
  attr {
    key: "_output_shapes"
    value {
      list {
        shape {
          dim {
            size: 384
          }
        }
      }
    }
  }
  attr {
    key: "dtype"
    value {
      type: DT_FLOAT
    }
  }
  attr {
    key: "value"
    value {
      tensor {
        dtype: DT_FLOAT
        tensor_shape {
          dim {
            size: 384
          }
        }
      }
    }
  }
}
node {
  name: "mixed_10/tower_1/mixed/conv_1/batchnorm/gamma"
  op: "Const"
  attr {
    key: "_output_shapes"
    value {
      list {
        shape {
          dim {
            size: 384
          }
        }
      }
    }
  }
  attr {
    key: "dtype"
    value {
      type: DT_FLOAT
    }
  }
  attr {
    key: "value"
    value {
      tensor {
        dtype: DT_FLOAT
        tensor_shape {
          dim {
            size: 384
          }
        }
      }
    }
  }
}
node {
  name: "mixed_10/tower_1/mixed/conv_1/batchnorm/moving_mean"
  op: "Const"
  attr {
    key: "_output_shapes"
    value {
      list {
        shape {
          dim {
            size: 384
          }
        }
      }
    }
  }
  attr {
    key: "dtype"
    value {
      type: DT_FLOAT
    }
  }
  attr {
    key: "value"
    value {
      tensor {
        dtype: DT_FLOAT
        tensor_shape {
          dim {
            size: 384
          }
        }
      }
    }
  }
}
node {
  name: "mixed_10/tower_1/mixed/conv_1/batchnorm/moving_variance"
  op: "Const"
  attr {
    key: "_output_shapes"
    value {
      list {
        shape {
          dim {
            size: 384
          }
        }
      }
    }
  }
  attr {
    key: "dtype"
    value {
      type: DT_FLOAT
    }
  }
  attr {
    key: "value"
    value {
      tensor {
        dtype: DT_FLOAT
        tensor_shape {
          dim {
            size: 384
          }
        }
      }
    }
  }
}
node {
  name: "mixed_10/tower_1/mixed/conv_1/batchnorm"
  op: "BatchNormWithGlobalNormalization"
  input: "mixed_10/tower_1/mixed/conv_1/Conv2D"
  input: "mixed_10/tower_1/mixed/conv_1/batchnorm/moving_mean"
  input: "mixed_10/tower_1/mixed/conv_1/batchnorm/moving_variance"
  input: "mixed_10/tower_1/mixed/conv_1/batchnorm/beta"
  input: "mixed_10/tower_1/mixed/conv_1/batchnorm/gamma"
  attr {
    key: "T"
    value {
      type: DT_FLOAT
    }
  }
  attr {
    key: "_output_shapes"
    value {
      list {
        shape {
          dim {
            size: 1
          }
          dim {
            size: 8
          }
          dim {
            size: 8
          }
          dim {
            size: 384
          }
        }
      }
    }
  }
  attr {
    key: "scale_after_normalization"
    value {
      b: false
    }
  }
  attr {
    key: "variance_epsilon"
    value {
      f: 0.0010000000475
    }
  }
}
node {
  name: "mixed_10/tower_1/mixed/conv_1/CheckNumerics"
  op: "CheckNumerics"
  input: "mixed_10/tower_1/mixed/conv_1/batchnorm"
  attr {
    key: "T"
    value {
      type: DT_FLOAT
    }
  }
  attr {
    key: "_output_shapes"
    value {
      list {
        shape {
          dim {
            size: 1
          }
          dim {
            size: 8
          }
          dim {
            size: 8
          }
          dim {
            size: 384
          }
        }
      }
    }
  }
  attr {
    key: "message"
    value {
      s: "activation input is not finite."
    }
  }
}
node {
  name: "mixed_10/tower_1/mixed/conv_1/control_dependency"
  op: "Identity"
  input: "mixed_10/tower_1/mixed/conv_1/batchnorm"
  input: "^mixed_10/tower_1/mixed/conv_1/CheckNumerics"
  attr {
    key: "T"
    value {
      type: DT_FLOAT
    }
  }
  attr {
    key: "_output_shapes"
    value {
      list {
        shape {
          dim {
            size: 1
          }
          dim {
            size: 8
          }
          dim {
            size: 8
          }
          dim {
            size: 384
          }
        }
      }
    }
  }
}
node {
  name: "mixed_10/tower_1/mixed/conv_1"
  op: "Relu"
  input: "mixed_10/tower_1/mixed/conv_1/control_dependency"
  attr {
    key: "T"
    value {
      type: DT_FLOAT
    }
  }
  attr {
    key: "_output_shapes"
    value {
      list {
        shape {
          dim {
            size: 1
          }
          dim {
            size: 8
          }
          dim {
            size: 8
          }
          dim {
            size: 384
          }
        }
      }
    }
  }
}
node {
  name: "mixed_10/tower_2/pool/CheckNumerics"
  op: "CheckNumerics"
  input: "mixed_9/join"
  attr {
    key: "T"
    value {
      type: DT_FLOAT
    }
  }
  attr {
    key: "_output_shapes"
    value {
      list {
        shape {
          dim {
            size: 1
          }
          dim {
            size: 8
          }
          dim {
            size: 8
          }
          dim {
            size: 2048
          }
        }
      }
    }
  }
  attr {
    key: "message"
    value {
      s: "MaxPool input is not finite."
    }
  }
}
node {
  name: "mixed_10/tower_2/pool/control_dependency"
  op: "Identity"
  input: "mixed_9/join"
  input: "^mixed_10/tower_2/pool/CheckNumerics"
  attr {
    key: "T"
    value {
      type: DT_FLOAT
    }
  }
  attr {
    key: "_output_shapes"
    value {
      list {
        shape {
          dim {
            size: 1
          }
          dim {
            size: 8
          }
          dim {
            size: 8
          }
          dim {
            size: 2048
          }
        }
      }
    }
  }
}
node {
  name: "mixed_10/tower_2/pool"
  op: "MaxPool"
  input: "mixed_10/tower_2/pool/control_dependency"
  attr {
    key: "T"
    value {
      type: DT_FLOAT
    }
  }
  attr {
    key: "_output_shapes"
    value {
      list {
        shape {
          dim {
            size: 1
          }
          dim {
            size: 8
          }
          dim {
            size: 8
          }
          dim {
            size: 2048
          }
        }
      }
    }
  }
  attr {
    key: "data_format"
    value {
      s: "NHWC"
    }
  }
  attr {
    key: "ksize"
    value {
      list {
        i: 1
        i: 3
        i: 3
        i: 1
      }
    }
  }
  attr {
    key: "padding"
    value {
      s: "SAME"
    }
  }
  attr {
    key: "strides"
    value {
      list {
        i: 1
        i: 1
        i: 1
        i: 1
      }
    }
  }
}
node {
  name: "mixed_10/tower_2/conv/conv2d_params"
  op: "Const"
  attr {
    key: "_output_shapes"
    value {
      list {
        shape {
          dim {
            size: 1
          }
          dim {
            size: 1
          }
          dim {
            size: 2048
          }
          dim {
            size: 192
          }
        }
      }
    }
  }
  attr {
    key: "dtype"
    value {
      type: DT_FLOAT
    }
  }
  attr {
    key: "value"
    value {
      tensor {
        dtype: DT_FLOAT
        tensor_shape {
          dim {
            size: 1
          }
          dim {
            size: 1
          }
          dim {
            size: 2048
          }
          dim {
            size: 192
          }
        }
      }
    }
  }
}
node {
  name: "mixed_10/tower_2/conv/Conv2D"
  op: "Conv2D"
  input: "mixed_10/tower_2/pool"
  input: "mixed_10/tower_2/conv/conv2d_params"
  attr {
    key: "T"
    value {
      type: DT_FLOAT
    }
  }
  attr {
    key: "_output_shapes"
    value {
      list {
        shape {
          dim {
            size: 1
          }
          dim {
            size: 8
          }
          dim {
            size: 8
          }
          dim {
            size: 192
          }
        }
      }
    }
  }
  attr {
    key: "data_format"
    value {
      s: "NHWC"
    }
  }
  attr {
    key: "dilations"
    value {
      list {
        i: 1
        i: 1
        i: 1
        i: 1
      }
    }
  }
  attr {
    key: "padding"
    value {
      s: "SAME"
    }
  }
  attr {
    key: "strides"
    value {
      list {
        i: 1
        i: 1
        i: 1
        i: 1
      }
    }
  }
  attr {
    key: "use_cudnn_on_gpu"
    value {
      b: true
    }
  }
}
node {
  name: "mixed_10/tower_2/conv/batchnorm/beta"
  op: "Const"
  attr {
    key: "_output_shapes"
    value {
      list {
        shape {
          dim {
            size: 192
          }
        }
      }
    }
  }
  attr {
    key: "dtype"
    value {
      type: DT_FLOAT
    }
  }
  attr {
    key: "value"
    value {
      tensor {
        dtype: DT_FLOAT
        tensor_shape {
          dim {
            size: 192
          }
        }
      }
    }
  }
}
node {
  name: "mixed_10/tower_2/conv/batchnorm/gamma"
  op: "Const"
  attr {
    key: "_output_shapes"
    value {
      list {
        shape {
          dim {
            size: 192
          }
        }
      }
    }
  }
  attr {
    key: "dtype"
    value {
      type: DT_FLOAT
    }
  }
  attr {
    key: "value"
    value {
      tensor {
        dtype: DT_FLOAT
        tensor_shape {
          dim {
            size: 192
          }
        }
      }
    }
  }
}
node {
  name: "mixed_10/tower_2/conv/batchnorm/moving_mean"
  op: "Const"
  attr {
    key: "_output_shapes"
    value {
      list {
        shape {
          dim {
            size: 192
          }
        }
      }
    }
  }
  attr {
    key: "dtype"
    value {
      type: DT_FLOAT
    }
  }
  attr {
    key: "value"
    value {
      tensor {
        dtype: DT_FLOAT
        tensor_shape {
          dim {
            size: 192
          }
        }
      }
    }
  }
}
node {
  name: "mixed_10/tower_2/conv/batchnorm/moving_variance"
  op: "Const"
  attr {
    key: "_output_shapes"
    value {
      list {
        shape {
          dim {
            size: 192
          }
        }
      }
    }
  }
  attr {
    key: "dtype"
    value {
      type: DT_FLOAT
    }
  }
  attr {
    key: "value"
    value {
      tensor {
        dtype: DT_FLOAT
        tensor_shape {
          dim {
            size: 192
          }
        }
      }
    }
  }
}
node {
  name: "mixed_10/tower_2/conv/batchnorm"
  op: "BatchNormWithGlobalNormalization"
  input: "mixed_10/tower_2/conv/Conv2D"
  input: "mixed_10/tower_2/conv/batchnorm/moving_mean"
  input: "mixed_10/tower_2/conv/batchnorm/moving_variance"
  input: "mixed_10/tower_2/conv/batchnorm/beta"
  input: "mixed_10/tower_2/conv/batchnorm/gamma"
  attr {
    key: "T"
    value {
      type: DT_FLOAT
    }
  }
  attr {
    key: "_output_shapes"
    value {
      list {
        shape {
          dim {
            size: 1
          }
          dim {
            size: 8
          }
          dim {
            size: 8
          }
          dim {
            size: 192
          }
        }
      }
    }
  }
  attr {
    key: "scale_after_normalization"
    value {
      b: false
    }
  }
  attr {
    key: "variance_epsilon"
    value {
      f: 0.0010000000475
    }
  }
}
node {
  name: "mixed_10/tower_2/conv/CheckNumerics"
  op: "CheckNumerics"
  input: "mixed_10/tower_2/conv/batchnorm"
  attr {
    key: "T"
    value {
      type: DT_FLOAT
    }
  }
  attr {
    key: "_output_shapes"
    value {
      list {
        shape {
          dim {
            size: 1
          }
          dim {
            size: 8
          }
          dim {
            size: 8
          }
          dim {
            size: 192
          }
        }
      }
    }
  }
  attr {
    key: "message"
    value {
      s: "activation input is not finite."
    }
  }
}
node {
  name: "mixed_10/tower_2/conv/control_dependency"
  op: "Identity"
  input: "mixed_10/tower_2/conv/batchnorm"
  input: "^mixed_10/tower_2/conv/CheckNumerics"
  attr {
    key: "T"
    value {
      type: DT_FLOAT
    }
  }
  attr {
    key: "_output_shapes"
    value {
      list {
        shape {
          dim {
            size: 1
          }
          dim {
            size: 8
          }
          dim {
            size: 8
          }
          dim {
            size: 192
          }
        }
      }
    }
  }
}
node {
  name: "mixed_10/tower_2/conv"
  op: "Relu"
  input: "mixed_10/tower_2/conv/control_dependency"
  attr {
    key: "T"
    value {
      type: DT_FLOAT
    }
  }
  attr {
    key: "_output_shapes"
    value {
      list {
        shape {
          dim {
            size: 1
          }
          dim {
            size: 8
          }
          dim {
            size: 8
          }
          dim {
            size: 192
          }
        }
      }
    }
  }
}
node {
  name: "mixed_10/join/concat_dim"
  op: "Const"
  attr {
    key: "_output_shapes"
    value {
      list {
        shape {
        }
      }
    }
  }
  attr {
    key: "dtype"
    value {
      type: DT_INT32
    }
  }
  attr {
    key: "value"
    value {
      tensor {
        dtype: DT_INT32
        tensor_shape {
        }
        int_val: 3
      }
    }
  }
}
node {
  name: "mixed_10/join"
  op: "Concat"
  input: "mixed_10/join/concat_dim"
  input: "mixed_10/conv"
  input: "mixed_10/tower/mixed/conv"
  input: "mixed_10/tower/mixed/conv_1"
  input: "mixed_10/tower_1/mixed/conv"
  input: "mixed_10/tower_1/mixed/conv_1"
  input: "mixed_10/tower_2/conv"
  attr {
    key: "N"
    value {
      i: 6
    }
  }
  attr {
    key: "T"
    value {
      type: DT_FLOAT
    }
  }
  attr {
    key: "_output_shapes"
    value {
      list {
        shape {
          dim {
            size: 1
          }
          dim {
            size: 8
          }
          dim {
            size: 8
          }
          dim {
            size: 2048
          }
        }
      }
    }
  }
}
node {
  name: "pool_3"
  op: "AvgPool"
  input: "mixed_10/join"
  attr {
    key: "T"
    value {
      type: DT_FLOAT
    }
  }
  attr {
    key: "_output_shapes"
    value {
      list {
        shape {
          dim {
            size: 1
          }
          dim {
            size: 1
          }
          dim {
            size: 1
          }
          dim {
            size: 2048
          }
        }
      }
    }
  }
  attr {
    key: "data_format"
    value {
      s: "NHWC"
    }
  }
  attr {
    key: "ksize"
    value {
      list {
        i: 1
        i: 8
        i: 8
        i: 1
      }
    }
  }
  attr {
    key: "padding"
    value {
      s: "VALID"
    }
  }
  attr {
    key: "strides"
    value {
      list {
        i: 1
        i: 1
        i: 1
        i: 1
      }
    }
  }
}
node {
  name: "pool_3/_reshape/shape"
  op: "Const"
  attr {
    key: "_output_shapes"
    value {
      list {
        shape {
          dim {
            size: 2
          }
        }
      }
    }
  }
  attr {
    key: "dtype"
    value {
      type: DT_INT32
    }
  }
  attr {
    key: "value"
    value {
      tensor {
        dtype: DT_INT32
        tensor_shape {
          dim {
            size: 2
          }
        }
      }
    }
  }
}
node {
  name: "pool_3/_reshape"
  op: "Reshape"
  input: "pool_3"
  input: "pool_3/_reshape/shape"
  attr {
    key: "T"
    value {
      type: DT_FLOAT
    }
  }
  attr {
    key: "Tshape"
    value {
      type: DT_INT32
    }
  }
  attr {
    key: "_output_shapes"
    value {
      list {
        shape {
          dim {
            size: 1
          }
          dim {
            size: 2048
          }
        }
      }
    }
  }
}
node {
  name: "input/BottleneckInputPlaceholder"
  op: "PlaceholderWithDefault"
  input: "pool_3/_reshape"
  attr {
    key: "_output_shapes"
    value {
      list {
        shape {
          dim {
            size: -1
          }
          dim {
            size: 2048
          }
        }
      }
    }
  }
  attr {
    key: "dtype"
    value {
      type: DT_FLOAT
    }
  }
  attr {
    key: "shape"
    value {
      shape {
        dim {
          size: -1
        }
        dim {
          size: 2048
        }
      }
    }
  }
}
node {
  name: "final_training_ops/weights/final_weights"
  op: "Const"
  attr {
    key: "_output_shapes"
    value {
      list {
        shape {
          dim {
            size: 2048
          }
          dim {
            size: 3
          }
        }
      }
    }
  }
  attr {
    key: "dtype"
    value {
      type: DT_FLOAT
    }
  }
  attr {
    key: "value"
    value {
      tensor {
        dtype: DT_FLOAT
        tensor_shape {
          dim {
            size: 2048
          }
          dim {
            size: 3
          }
        }
      }
    }
  }
}
node {
  name: "final_training_ops/weights/final_weights/read"
  op: "Identity"
  input: "final_training_ops/weights/final_weights"
  attr {
    key: "T"
    value {
      type: DT_FLOAT
    }
  }
  attr {
    key: "_class"
    value {
      list {
        s: "loc:@final_training_ops/weights/final_weights"
      }
    }
  }
  attr {
    key: "_output_shapes"
    value {
      list {
        shape {
          dim {
            size: 2048
          }
          dim {
            size: 3
          }
        }
      }
    }
  }
}
node {
  name: "final_training_ops/biases/final_biases"
  op: "Const"
  attr {
    key: "_output_shapes"
    value {
      list {
        shape {
          dim {
            size: 3
          }
        }
      }
    }
  }
  attr {
    key: "dtype"
    value {
      type: DT_FLOAT
    }
  }
  attr {
    key: "value"
    value {
      tensor {
        dtype: DT_FLOAT
        tensor_shape {
          dim {
            size: 3
          }
        }
      }
    }
  }
}
node {
  name: "final_training_ops/biases/final_biases/read"
  op: "Identity"
  input: "final_training_ops/biases/final_biases"
  attr {
    key: "T"
    value {
      type: DT_FLOAT
    }
  }
  attr {
    key: "_class"
    value {
      list {
        s: "loc:@final_training_ops/biases/final_biases"
      }
    }
  }
  attr {
    key: "_output_shapes"
    value {
      list {
        shape {
          dim {
            size: 3
          }
        }
      }
    }
  }
}
node {
  name: "final_training_ops/Wx_plus_b/MatMul"
  op: "MatMul"
  input: "input/BottleneckInputPlaceholder"
  input: "final_training_ops/weights/final_weights/read"
  attr {
    key: "T"
    value {
      type: DT_FLOAT
    }
  }
  attr {
    key: "_output_shapes"
    value {
      list {
        shape {
          dim {
            size: -1
          }
          dim {
            size: 3
          }
        }
      }
    }
  }
  attr {
    key: "transpose_a"
    value {
      b: false
    }
  }
  attr {
    key: "transpose_b"
    value {
      b: false
    }
  }
}
node {
  name: "final_training_ops/Wx_plus_b/logits"
  op: "Add"
  input: "final_training_ops/Wx_plus_b/MatMul"
  input: "final_training_ops/biases/final_biases/read"
  attr {
    key: "T"
    value {
      type: DT_FLOAT
    }
  }
  attr {
    key: "_output_shapes"
    value {
      list {
        shape {
          dim {
            size: -1
          }
          dim {
            size: 3
          }
        }
      }
    }
  }
}
node {
  name: "final_result"
  op: "Softmax"
  input: "final_training_ops/Wx_plus_b/logits"
  attr {
    key: "T"
    value {
      type: DT_FLOAT
    }
  }
  attr {
    key: "_output_shapes"
    value {
      list {
        shape {
          dim {
            size: -1
          }
          dim {
            size: 3
          }
        }
      }
    }
  }
}
node {
  name: "DecodeJPGInput"
  op: "Placeholder"
  attr {
    key: "_output_shapes"
    value {
      list {
        shape {
          unknown_rank: true
        }
      }
    }
  }
  attr {
    key: "dtype"
    value {
      type: DT_STRING
    }
  }
  attr {
    key: "shape"
    value {
      shape {
        unknown_rank: true
      }
    }
  }
}
node {
  name: "DecodeJpeg_1"
  op: "DecodeJpeg"
  input: "DecodeJPGInput"
  attr {
    key: "_output_shapes"
    value {
      list {
        shape {
          dim {
            size: -1
          }
          dim {
            size: -1
          }
          dim {
            size: 3
          }
        }
      }
    }
  }
  attr {
    key: "acceptable_fraction"
    value {
      f: 1.0
    }
  }
  attr {
    key: "channels"
    value {
      i: 3
    }
  }
  attr {
    key: "dct_method"
    value {
      s: ""
    }
  }
  attr {
    key: "fancy_upscaling"
    value {
      b: true
    }
  }
  attr {
    key: "ratio"
    value {
      i: 1
    }
  }
  attr {
    key: "try_recover_truncated"
    value {
      b: false
    }
  }
}
node {
  name: "Cast_1"
  op: "Cast"
  input: "DecodeJpeg_1"
  attr {
    key: "DstT"
    value {
      type: DT_FLOAT
    }
  }
  attr {
    key: "SrcT"
    value {
      type: DT_UINT8
    }
  }
  attr {
    key: "_output_shapes"
    value {
      list {
        shape {
          dim {
            size: -1
          }
          dim {
            size: -1
          }
          dim {
            size: 3
          }
        }
      }
    }
  }
}
node {
  name: "ExpandDims_1/dim"
  op: "Const"
  attr {
    key: "_output_shapes"
    value {
      list {
        shape {
        }
      }
    }
  }
  attr {
    key: "dtype"
    value {
      type: DT_INT32
    }
  }
  attr {
    key: "value"
    value {
      tensor {
        dtype: DT_INT32
        tensor_shape {
        }
        int_val: 0
      }
    }
  }
}
node {
  name: "ExpandDims_1"
  op: "ExpandDims"
  input: "Cast_1"
  input: "ExpandDims_1/dim"
  attr {
    key: "T"
    value {
      type: DT_FLOAT
    }
  }
  attr {
    key: "Tdim"
    value {
      type: DT_INT32
    }
  }
  attr {
    key: "_output_shapes"
    value {
      list {
        shape {
          dim {
            size: 1
          }
          dim {
            size: -1
          }
          dim {
            size: -1
          }
          dim {
            size: 3
          }
        }
      }
    }
  }
}
node {
  name: "stack"
  op: "Const"
  attr {
    key: "_output_shapes"
    value {
      list {
        shape {
          dim {
            size: 2
          }
        }
      }
    }
  }
  attr {
    key: "dtype"
    value {
      type: DT_INT32
    }
  }
  attr {
    key: "value"
    value {
      tensor {
        dtype: DT_INT32
        tensor_shape {
          dim {
            size: 2
          }
        }
      }
    }
  }
}
node {
  name: "ResizeBilinear_1"
  op: "ResizeBilinear"
  input: "ExpandDims_1"
  input: "stack"
  attr {
    key: "T"
    value {
      type: DT_FLOAT
    }
  }
  attr {
    key: "_output_shapes"
    value {
      list {
        shape {
          dim {
            size: 1
          }
          dim {
            size: 224
          }
          dim {
            size: 224
          }
          dim {
            size: 3
          }
        }
      }
    }
  }
  attr {
    key: "align_corners"
    value {
      b: false
    }
  }
}
node {
  name: "Sub_1/y"
  op: "Const"
  attr {
    key: "_output_shapes"
    value {
      list {
        shape {
        }
      }
    }
  }
  attr {
    key: "dtype"
    value {
      type: DT_FLOAT
    }
  }
  attr {
    key: "value"
    value {
      tensor {
        dtype: DT_FLOAT
        tensor_shape {
        }
        float_val: 127.5
      }
    }
  }
}
node {
  name: "Sub_1"
  op: "Sub"
  input: "ResizeBilinear_1"
  input: "Sub_1/y"
  attr {
    key: "T"
    value {
      type: DT_FLOAT
    }
  }
  attr {
    key: "_output_shapes"
    value {
      list {
        shape {
          dim {
            size: 1
          }
          dim {
            size: 224
          }
          dim {
            size: 224
          }
          dim {
            size: 3
          }
        }
      }
    }
  }
}
node {
  name: "DecodedImage/y"
  op: "Const"
  attr {
    key: "_output_shapes"
    value {
      list {
        shape {
        }
      }
    }
  }
  attr {
    key: "dtype"
    value {
      type: DT_FLOAT
    }
  }
  attr {
    key: "value"
    value {
      tensor {
        dtype: DT_FLOAT
        tensor_shape {
        }
        float_val: 0.00784313771874
      }
    }
  }
}
node {
  name: "DecodedImage"
  op: "Mul"
  input: "Sub_1"
  input: "DecodedImage/y"
  attr {
    key: "T"
    value {
      type: DT_FLOAT
    }
  }
  attr {
    key: "_output_shapes"
    value {
      list {
        shape {
          dim {
            size: 1
          }
          dim {
            size: 224
          }
          dim {
            size: 224
          }
          dim {
            size: 3
          }
        }
      }
    }
  }
}
versions {
}
